checkpoints/best_cnn_model_bs512.pt (torch, 183646 bytes, 28 tensors)

encoder.0.weight f4 [16, 1, 7]
0.48184627 0.58400244 -1.3564284 -0.46589142 -0.1881408 0.32910454 0.31714374 0.560399
0.0783041 0.44520366 -0.68731713 0.21970803 0.62718856 0.36599126 0.23253563 0.6729429
0.15697014 0.16786109 0.01654006 -0.78417075 -0.50571185 -0.7367076 -0.7221234 -0.5689375
0.060210872 0.55091655 0.09916023 0.33026588 -0.72134143 0.22652534 0.33718547 0.5984883
0.20189317 -0.104033336 -0.50483793 0.850937 2.175811 -0.03820787 -0.6922744 0.019954927
-0.13742922 -0.15750608 -1.4601959 -1.1948189 -0.70825243 -0.17764038 0.26579022 -0.06390814
0.41687492 0.90185213 0.5092593 0.15507896 0.21349084 -0.4427755 -0.6694907 -0.08597555
-0.6568197 -0.62769306 -0.15184225 -0.28438956 0.43607396 0.29910398 0.67926896 -0.1770229
-0.46914056 -0.370804 -0.10760327 0.3683067 0.7250996 1.0221921 -0.1359041 -0.027796637
-0.33259368 -0.65077174 0.24637534 0.6615485 2.151453 0.620365 0.6113622 -0.072158225
0.38507596 -0.37425438 -0.19995156 -0.7637973 0.63693976 0.2223055 0.6347816 -0.06475215
-0.05844401 0.38440716 0.40807596 0.7405655 -0.17884055 -0.3176902 -0.46442503 -0.54625577
0.09795238 0.40929326 0.6522045 0.50202197 0.46147183 -0.1709935 -0.46771413 -0.19009703
-0.46315327 0.52543926 0.22843763 0.31978405 -0.3736768 -0.71880656 -0.6257172 0.08985613
00000000: 8eb4 f63e 2f81 153f 729f adbf 5289 eebe
00000010: fba7 40be 6480 a83e aa60 a23e 4f76 0f3f
00000020: e65d a03d bcf1 e33e 04f4 2fbf 24fb 603e
00000030: 6e8f 203f 3563 bb3e d21d 6e3e fc45 2c3f
00000040: c8bc 203e c7e3 2b3e 057f 873c 6abf 48bf
00000050: 5576 01bf df98 3cbf 14dd 38bf e3a5 11bf
00000060: ad9f 763d de08 0d3f 8514 cb3d 9c18 a93e
00000070: d5a9 38bf 42f6 673e 93a3 ac3e 8736 193f
00000080: 15bd 4e3e 6e0f d5bd 0f3d 01bf 02d7 593f
00000090: 7d40 0b40 db7f 1cbd e538 31bf 8478 a33c
000000a0: 3fba 0cbe 4649 21be b3e7 babf d3ef 98bf
000000b0: 0850 35bf 5ce7 35be a815 883e 45e2 82bd
000000c0: a170 d53e c8df 663f d15e 023f 05cd 1e3e
000000d0: 589d 5a3e 78b3 e2be be63 2bbf f313 b0bd
000000e0: 5625 28bf 7eb0 20bf 897c 1bbe 829b 91be
000000f0: 1645 df3e 2824 993e 92e4 2d3f 7e45 35be
00000100: 3133 f0be 06da bdbe 1a5f dcbd b292 bc3e
00000110: 21a0 393f 31d7 823f 722a 0bbe c6b5 e3bc
00000120: b849 aabe fa98 26bf d149 7c3e 3e5b 293f
00000130: 68b1 0940 3ed0 1e3f 3c82 1c3f b1c7 93bd
00000140: ad28 c53e 459e bfbe 1ac0 4cbe 3888 43bf
00000150: 7c0e 233f 0ea4 633e 0c81 223f c69c 84bd
00000160: fc62 6fbd 04d1 c43e 55ef d03e b395 3d3f
00000170: fa21 37be 4aa8 a2be 1ec9 edbe 6bd7 0bbf
00000180: 429b c83d e38e d13e e0f6 263f 8384 003f
00000190: 0946 ec3e ec18 2fbe 3a78 efbe cca8 42be
000001a0: 6d22 edbe 3083 063f 8eeb 693e bcba a33e
000001b0: 9152 bfbe b503 38bf 012f 20bf 7e06 b83d

encoder.0.bias f4 [16]
-0.70762026 -0.86078304 0.048616845 0.018741911 -0.2728607 -0.61258894 -0.08198297 -0.36638638
1.0799056 0.15695299 -0.80641645 -0.49746096 0.55077 0.38443404 0.17251179 0.5801223
00000000: 9a26 35bf 475c 5cbf 7522 473d a388 993c
00000010: 66b4 8bbe a1d2 1cbf b0e6 a7bd ff96 bbbe
00000020: 593a 8a3f 49b8 203e 4f71 4ebf 34b3 febe
00000030: 43ff 0c3f 8ad4 c43e eea6 303e e582 143f

encoder.1.weight f4 [16]
0.7073937 0.49261615 2.223866 0.8065088 1.5440272 0.012677426 0.7087763 0.767962
1.9209024 0.88080543 0.72501236 1.4070196 0.40028876 0.84808826 0.854669 1.313127
00000000: c117 353f 2f38 fc3e d253 0e40 5c77 4e3f
00000010: afa2 c53f fbb4 4f3c 5d72 353f 2899 443f
00000020: 21e0 f53f 777c 613f 699a 393f 3819 b43f
00000030: a6f2 cc3e 501c 593f 96cb 5a3f 8c14 a83f

encoder.1.bias f4 [16]
-0.036388785 -0.002211459 0.05990096 -0.31891593 0.19389477 -0.10337546 -0.045851063 -0.13171463
0.18052238 0.206343 0.04107612 0.18574108 -0.009414601 -0.046243723 -0.0010388994 -0.08115335
00000000: 680c 15bd 20ee 10bb b65a 753d f348 a3be
00000010: 5a8c 463e 83b6 d3bd 53ce 3bbd 33e0 06be
00000020: dcda 383e 944b 533e 6f3f 283d e932 3e3e
00000030: b33f 1abc 0f6a 3dbd ae2b 88ba ba33 a6bd

encoder.1.running_mean f4 [16]
-0.7065416 -0.85858655 0.049614403 0.021005737 -0.27573672 -0.61277485 -0.08207553 -0.3699014
1.0806916 0.15731148 -0.8056395 -0.4982934 0.5510309 0.3830662 0.17230801 0.58014464
00000000: e9df 34bf 54cc 5bbf 7938 4b3d 3914 ac3c
00000010: 5d2d 8dbe d0de 1cbf 3717 a8bd b763 bdbe
00000020: 1a54 8a3f 4316 213e 643e 4ebf 5020 ffbe
00000030: 5c10 0d3f 4121 c43e 8371 303e 5c84 143f

encoder.1.running_var f4 [16]
0.043339714 0.71471554 0.088594615 0.38042447 0.0060594585 1.311534 2.6642764 0.2015646
0.15771072 0.41349807 1.2173021 0.12851138 1.3189473 0.034978356 0.12902343 0.15352483
00000000: fc84 313d 99f7 363f 1871 b53d ffc6 c23e
00000010: 6c8e c63b 59e0 a73f 8183 2a40 f366 4e3e
00000020: eb7e 213e 05b6 d33e 8ed0 9b3f 7d98 033e
00000030: 44d3 a83f 7745 0f3d b81e 043e 9d35 1d3e

encoder.4.weight f4 [32, 16, 5]
-0.6591578 -0.37527436 -0.08408483 0.38455474 0.4062913 0.037962303 0.20902416 0.43089378
0.5422889 0.75264627 -0.18950337 0.14482135 -0.03223405 -0.4260918 -0.10567415 -0.1431809
-0.29492316 -0.31831855 -0.34083503 -0.1641545 0.09545172 -0.13084988 -0.18352732 -0.36393628
0.30870074 0.0821343 -0.09247412 0.028625729 0.11812429 0.13086483 -0.6628676 -0.7544532
-0.338107 0.19573611 0.6533684 0.45161685 0.1576391 -0.22434163 -0.36954525 -0.41640386
-0.8932481 -0.4106926 -0.2195629 0.02976694 -0.008076099 -0.24858472 -0.21126404 0.094681464
0.548796 0.9421327 0.19706483 0.23193273 0.3897137 0.75024116 1.0869622 0.6390211
0.1741143 -0.15616623 -0.6535642 -0.49025092 0.015815431 0.043715604 0.39657718 0.3869227
0.6477129 -0.29954478 -0.4367208 0.20209205 0.424356 0.24458043 0.4806605 0.050035097
-0.36627245 -0.56534755 -0.52368325 -0.24980794 0.2413564 0.30384207 0.0836524 -0.25216213
0.22689928 -0.04318282 0.102001004 0.1679245 0.10045265 -0.58223826 -0.14224574 -0.06605007
-0.102400824 -0.22421122 -0.77885467 -0.44976535 -0.84272003 -0.7467386 0.3192955 0.09031636
0.10742692 0.004555381 0.079983436 -0.18159404 -0.27719253 -0.18771932 -0.19434455 0.2632467
0.52651924 -0.78258264 -0.018004624 0.24345587 0.014647307 -0.00952519 0.3295026 0.30648488
0.019692564 0.043182276 -0.008319749 0.15802333 -0.6208676 0.09530446 0.3710485 0.2277432
0.4624263 0.059890594 -0.28517035 -0.30514717 -0.7226134 0.12973572 0.18708752 0.07224707
-0.31269914 -0.6352584 -0.28946662 -0.106071375 -0.09635381 -0.3003101 -0.43442094 -0.8994288
-1.5719403 -1.8593315 -0.11218536 0.6679679 -0.6816701 -0.029056303 -0.07774557 -0.15768585
-0.008723975 -0.042075217 0.01851648 0.0067445873 0.24050833 0.06192676 -1.1806844 -2.111161
-1.8027581 -0.36555183 0.25657913 -0.06706254 0.10612143 0.2461291 0.43964848 0.31050596
-0.17899852 -0.39094654 -0.03765571 0.11242299 -0.0049659437 -0.7220933 -0.76921934 -0.63416636
-0.69355106 -0.98163706 -0.72083503 -0.5031166 0.29644182 -0.2647846 0.6590571 0.21117765
0.08909722 -0.25068215 -0.18591641 0.2361822 0.3045266 0.17585947 -0.00574629 -0.1763634
0.09750907 -0.25285363 -0.25267217 -0.07539946 -0.27289873 -0.07971313 0.16232695 -0.14358595
-0.22994737 -0.032971073 0.13083751 -1.1806657 -1.470632 -0.67123055 -0.2708357 -0.31343508
0.5121888 -0.30846336 -0.5604355 0.025189366 0.44687134 -0.06495471 -0.32354248 -0.5576385
-0.399386 0.17962152 -0.58184904 -0.63269603 -1.0739723 -1.084016 -0.28795138 -0.59370166
-0.397978 0.59276956 0.2944497 0.36884156 -0.8103551 -0.7040603 -0.5889282 -0.6058347
-0.9845663 -0.27699214 -0.51192033 -0.033707086 0.2895028 -0.23789805 -0.24250548 -0.16473788
0.41420242 0.26944554 -0.029083747 -0.38799575 -0.39594856 -0.1716234 -0.3311614 -0.18711677
-0.57561827 -0.42789343 -0.09367648 0.2962695 0.26399952 -0.37373796 -0.13855459 0.06920142
0.09784374 -0.10418638 0.024280353 -0.1314037 -0.4105122 -0.45830092 0.2252886 -0.4251622
00000000: 91be 28bf f623 c0be ab34 acbd 5ce4 c43e
00000010: 6a05 d03e 5c7e 1b3d 6e0a 563e 1c9e dc3e
00000020: 72d3 0a3f 6dad 403f 2c0d 42be 0c4c 143e
00000030: da07 04bd b428 dabe b06b d8bd 049e 12be
00000040: 2b00 97be a6fa a2be ee81 aebe 1e18 28be
00000050: 317c c33d 83fd 05be 96ee 3bbe db55 babe
00000060: 060e 9e3e 0736 a83d 1263 bdbd 8180 ea3c
00000070: 26eb f13d 6e01 063e b1b1 29bf d823 41bf
00000080: 5c1c adbe 0c6f 483e 2743 273f 533a e73e
00000090: 256c 213e d0b9 65be 0935 bdbe e332 d5be
000000a0: e8ab 64bf 4d46 d2be 19d5 60be ccd9 f33c
000000b0: 9d51 04bc fe8c 7ebe 9a55 58be 5be8 c13d
000000c0: e57d 0c3f 9c2f 713f 5dcb 493e c67f 6d3e
000000d0: 8e88 c73e ce0f 403f 9421 8b3f e396 233f
000000e0: 054b 323e 0aea 1fbe fc4f 27bf 2b02 fbbe
000000f0: 5d8f 813c 220f 333d 2a0c cb3e bb1a c63e
00000100: 83d0 253f ef5d 99be de99 dfbe 38f1 4e3e
00000110: 3145 d93e 4b73 7a3e 2219 f63e 9af1 4c3d
00000120: 1088 bbbe 9eba 10bf 1b10 06bf a7cd 7fbe
00000130: 2226 773e 3091 9b3e f351 ab3d 651b 81be
00000140: 4958 683e 78e0 30bd e7e5 d03d 66f4 2b3e
00000150: 1eba cd3d 910d 15bf dea8 11be 4245 87bd
00000160: 86b7 d1bd a097 65be 0563 47bf a547 e6be
00000170: 80bc 57bf 432a 3fbf b37a a33e c9f7 b83d
00000180: a502 dc3d 4e45 953b 5bce a33d caf3 39be
00000190: 2eec 8dbe 7e39 40be 4202 47be 45c8 863e
000001a0: f7c9 063f 5657 48bf 6f7e 93bc 7f4c 793e
000001b0: 42fb 6f3c 8b0f 1cbc 91b4 a83e 96eb 9c3e
000001c0: 4d52 a13c e6df 303d 8e4f 08bc ded0 213e
000001d0: 2ef1 1ebf fc2e c33d 12fa bd3e 8335 693e
000001e0: 24c3 ec3e d74f 753d d901 92be 403c 9cbe
000001f0: 31fd 38bf 71d9 043e df93 3f3e 46f6 933d
00000200: 1a1a a0be 4ba0 22bf f834 94be f33b d9bd
00000210: 2555 c5bd 3fc2 99be 6c6c debe f740 66bf
00000220: 5735 c9bf 93fe edbf 70c1 e5bd f2ff 2a3f
00000230: ef81 2ebf 7c07 eebc 1239 9fbd 6678 21be
00000240: 01ef 0ebc 1057 2cbd e0af 973c b301 dd3b
00000250: d147 763e eaa6 7d3d ab20 97bf 431d 07c0
00000260: c7c0 e6bf 9c29 bbbe 575e 833e 1658 89bd
00000270: 3156 d93d 4409 7c3e 9b19 e13e a3fa 9e3e
00000280: 634b 37be 252a c8be e03c 1abd 063e e63d
00000290: 5bb9 a2bb 1bdb 38bf 8feb 44bf ba58 22bf
000002a0: 908c 31bf 914c 7bbf a588 38bf 40cc 00bf
000002b0: 39c7 973e d991 87be f7b7 283f f43e 583e
000002c0: 9a78 b63d 6959 80be df60 3ebe bfd9 713e
000002d0: e9ea 9b3e 8114 343e 604b bcbb 9b98 34be
000002e0: d6b2 c73d 0876 81be 3f5e 81be 086b 9abd
000002f0: 62b9 8bbe a340 a3bd 0939 263e 3208 13be
00000300: 5377 6bbe ad0c 07bd 45fa 053e 0e20 97bf
00000310: ab3d bcbf c4d5 2bbf faaa 8abe 907a a0be
00000320: ce1e 033f e9ee 9dbe b378 0fbf ee59 ce3c
00000330: 52cc e43e fa06 85bd 5ca7 a5be 66c1 0ebf
00000340: 527c ccbe b4ee 373e 0ff4 14bf 5ef8 21bf
00000350: ed77 89bf 09c1 8abf 5d6e 93be d5fc 17bf
00000360: c6c3 cbbe bfbf 173f 1cc2 963e cdd8 bc3e
00000370: 6f73 4fbf 4c3d 34bf 00c4 16bf fc17 1bbf
00000380: 890c 7cbf ead1 8dbe 360d 03bf 7110 0abd
00000390: b639 943e 8c9b 73be 5b53 78be 0cb1 28be
000003a0: 5712 d43e c4f4 893e 0a41 eebc 61a7 c6be
000003b0: c5b9 cabe 0bbe 2fbe fd8d a9be 8a9b 3fbe
000003c0: b85b 13bf d914 dbbe 74d9 bfbd a3b0 973e
000003d0: f22a 873e 955a bfbe 41e1 0dbe 79b9 8d3d
000003e0: 4c62 c83d ab5f d5bd 97e7 c63c b18e 06be
000003f0: a82e d2be 6ba6 eabe 0eb2 663e dcae d9be

encoder.4.bias f4 [32]
0.03722703 0.3647182 0.46487996 0.15807092 0.20780504 -0.59820354 -0.2342258 -0.20534618
-0.19940667 0.09032015 0.113877825 0.24940832 -0.04601494 0.020121511 0.38000628 -0.20048295
-0.20672119 0.5977128 -0.12900652 -0.17658634 0.21935077 -0.21776257 0.5473461 0.0849416
0.10428964 0.27971435 0.049219705 0.09526626 0.31936148 0.12923858 0.6449152 0.20465794
00000000: 5f7b 183d 58bc ba3e bf04 ee3e 58dd 213e
00000010: d8ca 543e de23 19bf e3d8 6fbe 4546 52be
00000020: 4331 4cbe c5f9 b83d c738 e93d e564 7f3e
00000030: 297a 3cbd ded5 a43c 2f90 c23e 674b 4dbe
00000040: b8ae 53be b503 193f 491a 04be 0dd3 34be
00000050: 7d9d 603e 27fd 5ebe e01e 0c3f ddf5 ad3d
00000060: cf95 d53d b836 8f3e 9a9a 493d f51a c33d
00000070: 5983 a33e 1e57 043e 2a19 253f da91 513e

encoder.5.weight f4 [32]
1.0958041 1.2453535 0.963541 0.8201665 1.1181049 0.7786946 0.7958971 1.0623932
1.1597246 1.0828183 0.5981844 0.7623835 1.5630476 1.0909805 0.75075436 0.6564892
1.6137846 0.89364755 1.4699957 0.7812526 1.2528051 1.0347623 1.438382 1.1231735
0.5195309 1.2035748 1.0278647 0.9485663 1.2405665 0.84557956 1.1385795 1.4326504
00000000: 4f43 8c3f be67 9f3f 9faa 763f 6ff6 513f
00000010: 101e 8f3f 8858 473f eabf 4b3f 80fc 873f
00000020: db71 943f ca99 8a3f 9d22 193f 912b 433f
00000030: f211 c83f 40a5 8b3f 7031 403f ad0f 283f
00000040: 7e90 ce3f 16c6 643f d228 bc3f 2c00 483f
00000050: eb5b a03f 1773 843f e71c b83f 26c4 8f3f
00000060: faff 043f bd0e 9a3f 1291 833f 3ed5 723f
00000070: e2ca 9e3f e777 583f f9bc 913f 1761 b73f

encoder.5.bias f4 [32]
0.015941799 -0.41114524 -0.29929104 -0.03446703 -0.35490668 -0.47911206 -0.4302865 0.018097999
-0.33551347 -0.13787054 -0.13084601 -0.23450848 -0.39501783 -0.38684586 -0.91539013 -0.8260205
-0.3979976 -0.2150587 -0.25470674 -0.21006963 -0.36838648 0.13826512 -0.24368301 -0.5156983
-0.5849983 -0.35642722 -0.5598679 -0.24694082 -0.4637914 -0.32939684 -0.25707352 0.009619917
00000000: 6098 823c a181 d2be ad3c 99be 4d2d 0dbd
00000010: 54b6 b5be 2d4e f5be 834e dcbe 4142 943c
00000020: 6cc8 abbe ef2d 0dbe 7ffc 05be fe22 70be
00000030: c73f cabe a910 c6be 0257 6abf 1476 53bf
00000040: 57c6 cbbe 5938 5cbe ec68 82be 7e1c 57be
00000050: 279d bcbe 5f95 0d3e 0a88 79be ce04 04bf
00000060: 73c2 15bf a17d b6be 8153 0fbf 0ede 7cbe
00000070: 1176 edbe b4a6 a8be 249f 83be db9c 1d3c

encoder.5.running_mean f4 [32]
-1.0428915 -6.45598 -4.662576 -5.2343717 -9.818826 -2.0389729 -0.14192013 -1.4386085
-2.48347 0.022774575 -1.6142595 2.9891942 -0.91981745 -2.9980216 11.400648 1.474983
-5.053054 -8.596964 -1.1971081 -5.4707923 -10.618857 -4.0374393 -3.41946 -2.6745694
-0.38289544 -6.3325806 -9.281955 -1.7432655 -5.786641 -2.1380954 -1.3292454 -2.4797897
00000000: 787d 85bf 6397 cec0 d333 95c0 f97f a7c0
00000010: e919 1dc1 887e 02c0 8353 11be 5324 b8bf
00000020: 2cf1 1ec0 bf91 ba3c 0ea0 cebf f54e 3f40
00000030: 2879 6bbf 96df 3fc0 0e69 3641 3ecc bc3f
00000040: 9eb2 a1c0 2a8d 09c1 d73a 99bf bb10 afc0
00000050: d7e6 29c1 b432 81c0 6fd8 5ac0 252c 2bc0
00000060: df0a c4be 80a4 cac0 e382 14c1 5323 dfbf
00000070: 2a2c b9c0 8ed6 08c0 b724 aabf e0b4 1ec0

encoder.5.running_var f4 [32]
4.5024133 68.50014 18.94745 30.670937 103.72388 7.420092 12.89976 6.2588577
7.946713 7.1035347 10.402792 10.462752 7.009029 20.776001 35.64454 13.570358
19.742914 34.071438 8.333286 25.000484 69.78343 14.544006 22.544468 11.081918
22.244978 100.255875 51.450825 4.265329 32.53526 10.981535 6.569626 13.989156
00000000: c513 9040 1200 8942 6194 9741 145e f541
00000010: a072 cf42 6571 ed40 6b65 4e41 9048 c840
00000020: 794b fe40 2850 e340 d671 2641 6f67 2741
00000030: f749 e040 4035 a641 0294 0e42 3020 5941
00000040: 7df1 9d41 2749 0842 2455 0541 fe00 c841
00000050: 1e91 8b42 40b4 6841 125b b441 894f 3141
00000060: b7f5 b141 0283 c842 a5cd 4d42 937d 8840
00000070: 1b24 0242 5eb4 2f41 603a d240 95d3 5f41

encoder.8.weight f4 [64, 32, 3]
-0.19151561 -0.38956267 -1.13543 -0.5761152 0.21575738 -0.074098766 -0.41989216 0.56361526
-0.101543635 -0.9477169 -0.14652564 0.44564545 0.28280416 -0.054512497 -0.014103636 -0.15309145
0.0331586 -0.5075112 -0.2837679 -0.62677264 -0.74764293 -0.15764576 -0.29215497 -0.22736132
0.6421471 0.02998334 -0.81404716 -0.58770645 0.12526743 -0.48620576 0.040592693 -0.034991045
-0.3904329 -0.6335509 -0.07854755 -0.66563153 -1.1364999 -0.4172559 0.09021964 0.17789122
-0.6311403 0.30267522 -0.6242118 -1.5870018 -0.4290021 0.6309834 0.17400837 -0.29321092
0.16498654 -0.37634578 -0.037369624 -0.1753174 -0.036126316 0.5812979 0.38203844 0.2527946
-0.3643501 0.30193505 0.14708517 -0.09602272 -0.004415782 -0.064667195 0.19972797 0.14391835
0.02729254 -0.25600126 -0.5529654 -0.34386772 -0.66289103 -0.12447972 -0.20838624 -0.1059145
0.55820584 -0.09070842 -0.487458 0.5129974 0.25853446 0.5484752 0.19782993 0.18573514
0.11620734 -0.6811689 0.019333491 -0.40947828 0.3553143 -0.35271284 -0.7880281 -0.25560427
-0.62120503 -0.091871195 -0.40595293 0.09575911 0.11004089 0.24204166 -0.19452421 -0.5410778
0.11874448 0.34926102 -0.9602819 0.3587429 0.1812123 0.01330548 0.17999457 -0.356469
-0.15638874 0.046403054 0.18011308 0.034041036 -0.18604067 0.22488882 0.22465926 0.158675
0.11344178 0.6121427 -0.21850123 -0.19454004 -0.42233714 0.13945909 0.6921712 0.2607517
0.1687351 0.61097866 0.4497825 -0.9858005 -0.39502144 0.90074533 0.66399485 0.37012967
-0.5768182 -0.063966215 -0.33095348 0.35555622 0.45071447 -0.40515652 -0.3247265 0.017287932
0.20935981 -0.18722948 0.0990394 -0.462939 -0.5965585 0.33727446 0.23457952 0.28026772
-0.5891371 -0.29424503 -0.5377031 0.38313287 -0.28547308 -0.1957858 0.13798948 0.2687885
-0.30200136 0.49213278 0.108870015 -0.36460564 0.15906127 0.3121875 0.29179972 0.28525218
0.26269397 0.046553046 -0.27901316 -0.068347365 0.796005 -0.20598628 -0.37118182 0.3843264
-0.0775586 -0.447591 0.33893546 -0.710942 0.28418568 0.8120935 0.6096015 -0.5627229
-0.18247616 0.7100502 0.6973513 0.5284269 -0.30886766 0.06637939 0.14649 0.27950805
-0.25991553 -0.9048102 0.21880937 -0.3963131 -0.30678976 0.7383532 0.2352407 -0.24595807
-0.56117827 -1.0844789 -0.7164997 0.9091172 -0.16132252 -0.1692062 0.06183716 0.0010169294
0.31748742 -0.39304477 -0.082633674 0.18122071 0.19102159 0.16967134 0.18344025 0.35947928
-0.5712509 -0.6961017 -0.35014063 -0.07354749 0.24879922 -0.28879184 -0.2162961 -0.22532621
0.3187281 0.75759 -0.223005 -1.1263503 -0.0123463655 0.28616694 -0.5819994 -0.02769218
0.2042078 -0.39515668 0.009074328 -0.70282745 -0.4501144 -0.3210674 -0.28539953 0.31863856
-0.59750795 -0.43785357 0.11090164 -0.38908222 0.5245364 0.1590688 0.609122 0.24554007
-0.24625242 0.29031885 -0.027856741 0.18408707 -0.13302279 0.22090352 -0.037444055 -0.9379666
0.3874355 -0.6091301 0.42724687 0.27652118 0.6329782 -0.2824843 -0.24101505 0.21057159
00000000: ab1c 44be c274 c7be c555 91bf 497c 13bf
00000010: 81ef 5c3e 18c1 97bd 1bfc d6be 1749 103f
00000020: 1cf6 cfbd 939d 72bf d10a 16be a42b e43e
00000030: b5cb 903e 7f48 5fbd f012 67bc 01c4 1cbe
00000040: 50d1 073d 41ec 01bf 074a 91be 2c74 20bf
00000050: 8765 3fbf e46d 21be 5695 95be 68d1 68be
00000060: c163 243f 9f9f f53c 6565 50bf ee73 16bf
00000070: 1b46 003e f6ef f8be 8644 263d c552 0fbd
00000080: d2e6 c7be 6430 22bf 8add a0bd d466 2abf
00000090: d478 91bf 91a2 d5be 13c5 b83d 1e29 363e
000000a0: 6992 21bf 3ff8 9a3e 58cc 1fbf e022 cbbf
000000b0: 2aa6 dbbe 2188 213f 402f 323e be1f 96be
000000c0: 3bf2 283e 65b0 c0be e410 19bd 6886 33be
000000d0: 30f9 13bd f0cf 143f 8b9a c33e 4b6e 813e
000000e0: 198c babe 3b97 9a3e 7f9d 163e 8fa7 c4bd
000000f0: 44b2 90bb 3c70 84bd 7d85 4c3e 555f 133e
00000100: 9b94 df3c 9912 83be 248f 0dbf 6e0f b0be
00000110: 3ab3 29bf 39ef febd 3463 55be b4e9 d8bd
00000120: 94e6 0e3f 56c5 b9bd 1894 f9be cc53 033f
00000130: a15e 843e df68 0c3f ee93 4a3e 5a31 3e3e
00000140: 1dfe ed3d 1661 2ebf 4561 9e3c 23a7 d1be
00000150: c2eb b53e c796 b4be 36bc 49bf 90de 82be
00000160: 4b07 1fbf f726 bcbd 10d9 cfbe 5a1d c43d
00000170: 1e5d e13d c5d9 773e 5b31 47be 1384 0abf
00000180: 4e30 f33d 57d2 b23e 09d5 75bf 26ad b73e
00000190: b88f 393e 3aff 593c 7f50 383e 1b83 b6be
000001a0: 5f24 20be 2111 3e3d 906f 383e 9d6e 0b3d
000001b0: 7281 3ebe 4149 663e 140d 663e b37b 223e
000001c0: 2a54 e83d 62b5 1c3f c9be 5fbe 8135 47be
000001d0: 933c d8be 5dce 0e3e 2232 313f 3f81 853e
000001e0: e5c8 2c3e 1969 1c3f e449 e63e 6c5d 7cbf
000001f0: 4040 cabe 3f97 663f 91fb 293f a381 bd3e
00000200: 5caa 13bf b800 83bd bc72 a9be 770b b63e
00000210: 0cc4 e63e ad70 cfbe 8d42 a6be 6c9f 8d3c
00000220: 6b62 563e 16b9 3fbe 2bd5 ca3d 5706 edbe
00000230: 0fb8 18bf 3daf ac3e 9d35 703e 407f 8f3e
00000240: b0d1 16bf 49a7 96be e9a6 09bf fe29 c43e
00000250: 8729 92be 137c 48be 1d4d 0d3e a59e 893e
00000260: ec9f 9abe d4f8 fb3e 3ef7 de3d 97ad babe
00000270: f5e0 223e 0ad7 9f3e c666 953e 930c 923e
00000280: d37f 863e 68ae 3e3d d0da 8ebe b4f9 8bbd
00000290: fcc6 4b3f 11ee 52be 8b0b bebe 6ec6 c43e
000002a0: 0bd7 9ebd a62a e5be f388 ad3e 4b00 36bf
000002b0: c980 913e 5ce5 4f3f d80e 1c3f 9c0e 10bf
000002c0: 08db 3abe dac5 353f 9d85 323f fc46 073f
000002d0: e723 9ebe ebf1 873d 7901 163e ae1b 8f3e
000002e0: a613 85be a4a1 67bf 900f 603e 8de9 cabe
000002f0: 8c13 9dbe b704 3d3f f0e2 703e 6fdc 7bbe
00000300: 61a9 0fbf 34d0 8abf 866c 37bf e8bb 683f
00000310: bb31 25be 6444 2dbe f648 7d3d 7d4a 853a
00000320: b68d a23e 2a3d c9be d83b a9bd ec91 393e
00000330: 2a9b 433e 53be 2d3e c3d7 3b3e ab0d b83e
00000340: 803d 12bf b933 32bf a245 b3be 11a0 96bd
00000350: 39c5 7e3e 86dc 93be ba7c 5dbe eabb 66be
00000360: 5430 a33e 6bf1 413f 6c5b 64be 3f2c 90bf
00000370: 6948 4abc 7984 923e eafd 14bf b6da e2bc
00000380: d91b 513e fa51 cabe 7dac 143c 80ec 33bf
00000390: 6575 e6be f262 a4be e31f 92be 9824 a33e
000003a0: 48f6 18bf 582e e0be 6620 e33d c935 c7be
000003b0: 0448 063f eee2 223e 6bef 1b3f db6e 7b3e
000003c0: 9829 7cbe aca4 943e d233 e4bc 5281 3c3e
000003d0: 2037 08be 8834 623e f05e 19bd 941e 70bf
000003e0: f25d c63e f3ef 1bbf 1ac0 da3e 2f94 8d3e
000003f0: dc0a 223f c8a1 90be a6cc 76be 14a0 573e

encoder.8.bias f4 [64]
-0.9426707 -0.016252968 0.46962753 -0.40950784 -0.5618166 -1.051427 0.1291518 -0.063074656
-0.26753575 -0.2120512 -0.099645846 -0.10958378 -0.929041 -0.4284905 0.13530329 0.039782505
-0.3406099 -0.277739 -0.2491303 -0.08463201 0.15879032 -0.24634477 0.06929645 0.046205368
0.60077804 -0.3405031 0.14508884 0.30417764 0.2165379 0.07774981 -0.3878533 -0.026584174
-0.13214397 -0.4321913 0.24811272 -0.19142295 0.55929047 0.50406045 0.6227856 -0.046231963
-0.37457457 0.2851962 0.2768536 0.022426305 -0.04235901 0.1855191 0.1693432 0.07183289
0.0027114423 0.17600538 0.081222355 0.110342585 -0.46262106 0.31325847 -0.38344246 0.06145673
-0.52234036 -0.05236937 0.641375 0.88954854 0.045083586 0.15256242 0.3748295 -0.34459054
00000000: de52 71bf f224 85bc 0573 f03e 03ab d1be
00000010: 36d3 0fbf 2995 86bf 5f40 043e 492d 81bd
00000020: 72fa 88be f323 59be 1f13 ccbd 766d e0bd
00000030: a2d5 6dbf 1b63 dbbe f28c 0a3e fbf2 223d
00000040: 6c64 aebe ce33 8ebe 031c 7fbe 8c53 adbd
00000050: ee99 223e ce41 7cbe 4ceb 8d3d d741 3d3d
00000060: 97cc 193f 6c56 aebe 2b92 143e 2cbd 9b3e
00000070: 1cbc 5d3e 4b3b 9f3d b594 c6be 0ec7 d9bc
00000080: c050 07be 2e48 ddbe 4311 7e3e 6104 44be
00000090: a92d 0f3f 1b0a 013f e16e 1f3f ba5d 3dbd
000000a0: 3dc8 bfbe 3c05 923e c1bf 8d3e 5fb7 b73c
000000b0: a480 2dbd b8f8 3d3e 4e68 2d3e 1f1d 933d
000000c0: 74b2 313b c13a 343e e857 a63d 4bfb e13d
000000d0: abdc ecbe 6a63 a03e 9252 c4be 0dba 7b3d
000000e0: 19b8 05bf 4481 56bd 2731 243f 74b9 633f
000000f0: 91a9 383d 5339 1c3e a7e9 bf3e 2c6e b0be

encoder.9.weight f4 [64]
0.97735935 0.8796045 1.2730038 0.77220255 0.63929707 1.2266699 1.3886752 0.9978266
1.054369 0.9994879 1.0906795 1.0226623 0.8154142 0.9536576 1.1024008 1.2628418
1.1173625 1.2603691 0.8746438 1.1972748 1.1123974 0.8241366 0.85329795 1.1109087
0.7981733 0.9669466 1.2977972 0.9672648 1.3340544 0.7613309 0.98874027 0.8699946
1.0984169 0.70550674 0.721417 0.74787205 1.0257555 0.87875164 0.99482185 1.3109579
1.0480065 0.7035018 0.8642335 1.3153679 1.0248194 1.222862 1.0661663 1.1136634
0.985335 1.2214335 0.8423375 0.8443069 1.1390289 0.900214 1.1636854 1.0770211
1.1173806 0.9236764 1.1703625 0.97665167 0.99632037 0.8565359 0.9553873 1.0536908
00000000: 3934 7a3f c32d 613f caf1 a23f 11af 453f
00000010: f9a8 233f 8503 9d3f 1cc0 b13f 9071 7f3f
00000020: 90f5 863f 70de 7f3f 639b 8b3f 99e6 823f
00000030: fcbe 503f e822 743f 781b 8d3f cda4 a13f
00000040: bc05 8f3f c653 a13f a8e8 5f3f 4d40 993f
00000050: 0a63 8e3f 9efa 523f bc71 5a3f 4232 8e3f
00000060: 1655 4c3f d089 773f 381e a63f aa9e 773f
00000070: 4bc2 aa3f 95e6 423f 151e 7d3f f7b7 5e3f
00000080: ed98 8c3f 179c 343f c9ae 383f 8b74 3f3f
00000090: f54b 833f def5 603f a5ac 7e3f 78cd a73f
000000a0: 1425 863f b218 343f 683e 5d3f fa5d a83f
000000b0: 482d 833f be86 9c3f 2378 883f 868c 8e3f
000000c0: ea3e 7c3f ef57 9c3f 6ea3 573f 7f24 583f
000000d0: b3cb 913f 6d74 663f a5f3 943f d4db 893f
000000e0: 5406 8f3f 0e76 6c3f 70ce 953f d805 7a3f
000000f0: da0e 7f3f f045 5b3f 4394 743f 57df 863f

encoder.9.bias f4 [64]
-0.3407313 -0.69728154 -0.7239255 -0.5585016 -0.2093826 -0.60180795 -0.96488166 -0.49958777
-0.37691826 -0.46804222 -0.4675493 -0.41591924 -0.34422863 -0.7032364 -0.55411905 -0.42192432
-0.63934606 -0.51990354 -0.40896654 -0.5283604 -0.47311765 -0.51840276 -0.61047393 -0.37866834
-0.5423769 -0.6570835 -0.5298409 -0.42418838 -0.42924494 -0.24310653 -0.3862906 -0.17151351
-0.6333059 0.004620457 -0.31809416 -0.31188476 -0.598027 -0.5706731 -0.42898965 -0.63504475
-0.41358355 -0.27326447 -0.5593405 -0.5559137 -0.66487586 -0.8915482 -0.60599774 -0.34297362
-0.34065372 -0.31326583 -0.54083973 -0.0488028 -0.22300754 -0.3411294 -0.5413195 -0.60569054
-0.5241786 -0.38872203 -0.41368 -0.21726812 -0.5529254 -0.43072844 -0.10420853 -0.40275732
00000000: 5574 aebe 0b81 32bf 2e53 39bf f6f9 0ebf
00000010: 6468 56be 1610 1abf 7c02 77bf f8c9 ffbe
00000020: 6efb c0be 3ba3 efbe 9f62 efbe 5ef3 d4be
00000030: bc3e b0be 4d07 34bf bfda 0dbf 7706 d8be
00000040: 2fac 23bf 6618 05bf 1064 d1be a142 07bf
00000050: 7a3c f2be 0bb6 04bf 0548 1cbf d1e0 c1be
00000060: 36d9 0abf a036 28bf a7a3 07bf 382f d9be
00000070: fec5 dbbe ebf0 78be e2c7 c5be 3da1 2fbe
00000080: 5620 22bf 3467 973b 3ddd a2be 5caf 9fbe
00000090: 4c18 19bf a217 12bf 88a4 dbbe 4b92 22bf
000000a0: 39c1 d3be 52e9 8bbe f030 0fbf 5c50 0ebf
000000b0: 4e35 2abf 813c 64bf ab22 1bbf 3d9a afbe
000000c0: 2a6a aebe 6164 a0be 7974 0abf 72e5 47bd
000000d0: 175c 64be 83a8 aebe ea93 0abf 890e 1bbf
000000e0: 9230 06bf 9306 c7be ddcd d3be 897b 5ebe
000000f0: 858c 0dbf 7088 dcbe 486b d5bd 3536 cebe

encoder.9.running_mean f4 [64]
-5.4489107 1.4613659 -0.6434104 1.2391868 -1.5447115 -6.2832074 -1.2277671 -4.2608557
-4.3239384 -1.7348119 -4.513366 -1.9776407 -1.1027101 -4.60825 -2.3075645 -2.4536703
0.6659959 -3.4403486 -2.4265304 -3.9789221 -2.3427045 -2.901588 -2.5313692 -5.608877
3.1358747 4.0246515 -2.8222961 -1.9184725 -3.903541 -1.2712371 -4.014107 -1.9359822
-1.8041549 -5.465357 2.6519666 -0.363291 -1.3996223 2.1200745 -0.49422035 -2.664903
-4.956602 -0.9240408 -2.5611234 -4.3227143 -2.6123087 -3.9104183 -3.222814 -1.1800926
-1.2647532 -3.4770517 -2.3858418 -2.827843 -5.9260364 -3.7113054 -2.2511075 -4.2000713
-4.267147 -2.7774332 -3.0234063 -2.3665943 -2.8306422 -1.1950291 -4.364771 -1.8974162
00000000: 7a5d aec0 0a0e bb3f 8bb6 24bf ac9d 9e3f
00000010: 1bb9 c5bf 0910 c9c0 7927 9dbf ee58 88c0
00000020: b45d 8ac0 510e debf 7f6d 90c0 5523 fdbf
00000030: 9b25 8dbf c976 93c0 23af 13c0 ef08 1dc0
00000040: b57e 2a3f ac2e 5cc0 464c 1bc0 a9a6 7ec0
00000050: dfee 15c0 9eb3 39c0 f401 22c0 ec7b b3c0
00000060: 2cb2 4840 f2c9 8040 80a0 34c0 8290 f5bf
00000070: 9ed3 79c0 e6b7 a2bf 9173 80c0 44ce f7bf
00000080: 8cee e6bf 34e4 aec0 d2b9 2940 4701 babe
00000090: d326 b3bf 4daf 0740 730a fdbe c58d 2ac0
000000a0: 7c9c 9ec0 f08d 6cbf 72e9 23c0 ad53 8ac0
000000b0: 1130 27c0 4b44 7ac0 9642 4ec0 460d 97bf
000000c0: 6fe3 a1bf 0488 5ec0 a2b1 18c0 61fb 34c0
000000d0: 17a2 bdc0 0786 6dc0 2512 10c0 fc66 86c0
000000e0: 788c 88c0 77c1 31c0 7d7f 41c0 4876 17c0
000000f0: 3e29 35c0 b7f6 98bf 34ac 8bc0 89de f2bf

encoder.9.running_var f4 [64]
8.724841 4.0023823 5.214779 1.9018705 3.426095 8.378255 5.853699 4.986695
7.3293166 4.0107036 6.2958045 9.883051 2.6999595 5.4778337 8.516826 8.219923
8.387608 8.496335 3.572902 8.257039 8.034733 5.155656 4.6368318 6.5250883
5.1024113 7.3495646 8.348539 4.653979 10.063267 3.520088 5.852042 7.796209
3.9228308 5.098989 3.4025002 4.819342 6.649088 5.717742 4.65297 10.380437
8.341435 3.2237117 7.6010284 6.4674735 4.557291 8.196422 10.124811 9.971073
4.4257026 9.300162 7.623783 7.7871923 10.192951 6.4298387 8.361569 6.1867585
5.8598723 6.097874 11.5019 6.44652 6.4862337 5.46901 8.535723 9.189904
00000000: f398 0b41 8413 8040 78df a640 7e70 f33f
00000010: 2445 5b40 550d 0641 8151 bb40 0193 9f40
00000020: c389 ea40 af57 8040 3b77 c940 fa20 1e41
00000030: 23cc 2c40 6a4a af40 eb44 0841 ce84 0341
00000040: a433 0641 fdf0 0741 6daa 6440 d51c 0441
00000050: 448e 0041 22fb a440 ed60 9440 86cd d040
00000060: f446 a340 a22f eb40 9e93 0541 65ed 9440
00000070: 2403 2141 1f49 6140 ee43 bb40 8b7a f940
00000080: a90f 7b40 eb2a a340 90c2 5940 0d38 9a40
00000090: 54c5 d440 bef7 b640 21e5 9440 4516 2641
000000a0: 8576 0541 4b51 4e40 a03b f340 8bf5 ce40
000000b0: 54d5 9140 8b24 0341 3aff 2141 8489 1f41
000000c0: 5b9f 8d40 77cd 1441 08f6 f340 ae30 f940
000000d0: 5416 2341 3dc1 cd40 fdc8 0541 edf9 c540
000000e0: 1384 bb40 c921 c340 c807 3841 e449 ce40
000000f0: 3a8f cf40 2102 af40 5292 0841 d909 1341

encoder.12.weight f4 [128, 64, 3]
-0.1565416 -0.2661226 -0.4975564 0.29827997 -0.0943863 0.3459347 -0.15192577 0.059429068
-0.78337973 -0.43258834 -0.015373553 0.077055395 0.17871657 0.15979746 -0.6322281 0.10291553
0.27439168 0.5005754 0.43519682 -0.31587404 -0.41562197 0.6059534 0.34293556 0.10561792
-0.29652354 -0.56131667 -0.4775221 0.4661118 0.3120336 -0.14271821 0.38014808 0.368726
-0.052486517 -0.49273503 0.24035543 0.6757869 0.6465804 0.2949939 0.238348 -0.4032919
-0.17500174 0.5957664 0.4848307 -0.12132343 0.80277157 0.22674918 -0.17583366 -0.62548864
-0.28270918 0.2513212 0.35209137 -0.0043254634 0.29255816 0.288683 -0.56205404 -0.2066623
-0.0848107 -0.36662686 -0.23276496 0.33931983 0.21981318 -0.39237133 -0.66874945 -0.7174383
-0.6663902 -0.14857443 0.53223556 0.28327158 -0.6781286 0.38698125 0.04705038 -0.35436594
-0.086846694 0.0010083689 -0.12332177 -0.44836593 0.19049685 -0.28720218 0.34904593 0.1266927
0.50083494 -0.97343343 -0.49270144 -0.9085145 -0.11318008 -0.037995882 -0.7122857 -0.63228536
-0.016687054 -0.37270534 -0.32929575 0.53778505 0.109224625 0.6716937 0.6073651 0.14191908
0.24433817 -0.054408237 -0.459786 -0.683604 -0.06851629 -0.32890052 -0.4236252 0.024195803
-0.46993953 -0.21612382 -0.630635 0.34297362 -0.35967302 -0.50253975 -0.26059043 0.5414511
0.063675866 -0.12672147 0.071140684 -0.052517083 -0.6564421 0.44035944 0.34870428 -0.25573263
-0.52691174 0.42320368 -0.9110634 -0.7912642 -0.44963267 -0.2241389 -0.18330565 0.29862028
-0.47486332 0.38479882 0.15044804 -0.6682582 0.01968304 -0.069802575 0.022303833 0.106180795
-0.070516825 -0.39621764 -0.2128312 0.7065884 -0.13209689 -0.1440305 -0.15587951 -1.0318644
0.010649213 0.5664062 0.33191258 -0.7801024 0.091205396 -0.4224145 -0.7449216 0.053769458
0.60548913 0.60932857 0.4568218 0.36336052 -0.38623217 -0.24204211 -0.5176726 0.69613475
0.074305 0.42076567 0.2661038 0.13935204 -0.1468485 -0.12370875 -0.08455593 0.4746308
1.0387541 -0.19557305 -0.58858156 0.48956883 0.5714716 0.05969161 0.028987639 -0.562922
0.16766176 -0.07300216 -1.0485 0.4572861 -0.027903456 -0.6059535 -1.0876915 -0.13284609
-0.05088288 -0.27670106 -0.50587124 -0.07829993 -0.6769297 0.29828668 -0.120607525 -1.1560042
0.08697816 -0.6802518 0.3042759 -0.14177065 -0.066200875 -0.23463885 0.5768221 0.7775769
0.26523292 0.032259133 -0.3492173 -0.7446046 -0.4901466 0.47007582 0.34418446 -0.022735555
0.13403243 0.08659658 -0.29392728 0.24691609 0.36235029 -0.2119428 0.14441733 0.29994342
0.077902965 0.47279802 -0.1575144 0.14967297 0.14871345 -0.645534 0.40085617 -0.3527332
-0.23667401 0.0064147445 -0.34715202 0.22777893 0.047970094 -0.16967939 0.2715376 0.54190725
-0.05385759 0.23870422 -0.1184282 0.374462 -0.88439256 -0.38183275 0.3278742 0.40634173
0.51432496 -0.32133874 0.5377724 0.18521799 -0.5156836 0.28422973 0.11865733 0.16032898
-0.43923807 -0.3365532 -0.18201108 0.054863878 -0.50178254 0.2500904 -1.8352945 0.0019977859
00000000: 714c 20be 3941 88be b6bf febe 27b8 983e
00000010: 9b4d c1bd 5a1e b13e 6e92 1bbe e56b 733d
00000020: 938b 48bf 387c ddbe 5be1 7bbc 38cf 9d3d
00000030: 7a01 373e f2a1 233e b3d9 21bf 61c5 d23d
00000040: 117d 8c3e b625 003f 1ed2 de3e 3eba a1be
00000050: 67cc d4be c31f 1b3f 4095 af3e 354e d83d
00000060: efd1 97be 73b2 0fbf c77d f4be 35a6 ee3e
00000070: dec2 9f3e b924 12be c5a2 c23e a7c9 bc3e
00000080: 1afc 56bd c447 fcbe bc1f 763e 5f00 2d3f
00000090: 4b86 253f 7109 973e 8011 743e 477c cebe
000000a0: a833 33be 2684 183f bb3b f83e 6b78 f8bd
000000b0: 7082 4d3f f030 683e bd0d 34be 0620 20bf
000000c0: 42bf 90be 2cad 803e 5245 b43e 9ebc 8dbb
000000d0: 2fca 953e 42ce 933e c6e2 0fbf 489f 53be
000000e0: 3bb1 adbd 84b6 bbbe f059 6ebe 54bb ad3e
000000f0: b516 613e e5e4 c8be 2a33 2bbf 09aa 37bf
00000100: 8c98 2abf e523 18be 9740 083f f908 913e
00000110: d699 2dbf 6822 c63e e6b7 403d 746f b5be
00000120: aedc b1bd 3f2b 843a 2090 fcbd 3890 e5be
00000130: 9b11 433e 2a0c 93be 26b6 b23e bbbb 013e
00000140: b836 003f ef32 79bf 5d43 fcbe 6894 68bf
00000150: f5ca e7bd 92a1 1bbd 5b58 36bf 74dd 21bf
00000160: 4ab3 88bc 3cd3 bebe 7499 a8be 48ac 093f
00000170: 29b1 df3d 1ef4 2b3f 477c 1b3f 3c53 113e
00000180: c933 7a3e 2cdb 5ebd 1269 ebbe ac00 2fbf
00000190: 4552 8cbd a665 a8be 67e5 d8be 4736 c63c
000001a0: ea9b f0be 904f 5dbe 4c71 21bf 3d9a af3e
000001b0: 1027 b8be 72a6 00bf 1c6c 85be 8a9c 0a3f
000001c0: 7e68 823d 46c3 01be 35b2 913d 271c 57bd
000001d0: 970c 28bf cb76 e13e 5e89 b23e 63ef 82be
000001e0: b0e3 06bf 27ae d83e 733b 69bf 4a90 4abf
000001f0: 4136 e6be ab84 65be 7ab4 3bbe c2e4 983e
00000200: 4921 f3be 5a04 c53e 0d0f 1a3e f812 2bbf
00000210: 543e a13c a7f4 8ebd 87b6 b63c 5175 d93d
00000220: 206b 90bd 0add cabe 6cf0 59be fae2 343f
00000230: 6844 07be bb7c 13be e19e 1fbe 2214 84bf
00000240: 097a 2e3c ffff 103f 72f0 a93e cab4 47bf
00000250: e5c9 ba3d b746 d8be 2fb3 3ebf 5d3d 5c3d
00000260: 5601 1b3f f5fc 1b3f 8ce4 e93e 640a ba3e
00000270: 39c0 c5be e3d9 77be 3186 04bf e335 323f
00000280: 382d 983d 996e d73e c23e 883e 4db2 0e3e
00000290: 745f 16be 035b fdbd a92b adbd cf02 f33e
000002a0: e5f5 843f 4d44 48be 48ad 16bf c4a8 fa3e
000002b0: f64b 123f 317f 743d 7c77 ed3c a81b 10bf
000002c0: 86af 2b3e 2882 95bd 3f35 86bf 6721 ea3e
000002d0: ca95 e4bc c51f 1bbf 7a39 8bbf ce08 08be
000002e0: 916a 50bd c3ab 8dbe c780 01bf b75b a0bd
000002f0: 444b 2dbf 08b9 983e 1401 f7bd f2f7 93bf
00000300: 9b21 b23d fb24 2ebf 0dca 9b3e 532c 11be
00000310: 5394 87bd 2b45 70be 9daa 133f 480f 473f
00000320: 9ccc 873e 2722 043d 9ccc b2be 689e 3ebf
00000330: 7ff4 fabe c7ad f03e f238 b03e ea3f babc
00000340: cc3f 093e 8c59 b13d a37d 96be 92d7 7c3e
00000350: fa85 b93e 8907 59be 23e2 133e 2f92 993e
00000360: 978b 9f3d 9512 f23e 744b 21be df43 193e
00000370: 5748 183e b741 25bf 053d cd3e 7299 b4be
00000380: ac5a 72be c732 d23b e9bd b1be e13e 693e
00000390: 4a7c 443d 6fc0 2dbe fa06 8b3e 6fba 0a3f
000003a0: c799 5cbd e16e 743e 7c8a f2bd 7cb9 bf3e
000003b0: 8d67 62bf 957f c3be 21df a73e 060c d03e
000003c0: cdaa 033f 8386 a4be 74ab 093f c9a9 3d3e
000003d0: d703 04bf 8f86 913e 9d02 f33d 482d 243e
000003e0: d0e3 e0be b350 acbe 1d61 3abe f2b8 603d
000003f0: d274 00bf d90b 803e eeea eabf 49ed 023b

encoder.12.bias f4 [128]
-0.34490436 -0.048262738 0.061243683 0.24955963 -0.1459467 0.13608351 -0.2685596 0.23593768
-0.71596915 -0.0011586598 0.4958355 -0.10951226 0.16324288 -0.6722561 -0.006832857 0.2708231
0.07851264 0.4617827 -0.2917452 0.14058772 0.51042306 -0.41083238 0.21259235 0.46975553
0.24202293 -0.017485365 0.20788178 0.15483876 0.56243587 0.654011 0.6650483 0.08307213
0.08150704 -0.21113618 -0.006271783 -0.109099105 0.04265185 -0.85563785 -0.15154992 0.2829171
-0.47432685 0.7455246 0.41206405 0.28306112 0.056809317 -0.20622766 -0.4841536 -0.57138747
0.0074795545 0.0058577424 -0.2181543 -0.23985954 0.6090983 0.19919503 0.622242 0.3445875
-0.19727021 0.5587184 0.29724506 0.07281604 0.12236945 0.02666828 -0.46520436 0.1675322
-0.035971824 -0.2389108 -0.5630758 0.5347673 -0.26873475 -0.03546714 0.06450254 -0.5752739
-0.21210666 0.16049199 0.012857264 0.6461391 -0.034858603 -0.21601228 -0.37025058 0.44994676
-0.101395495 -0.06662616 -0.054198634 0.5651761 0.14032023 -0.24151549 0.18281493 0.612414
-0.03952235 0.38544095 0.29759687 0.41323152 0.31110257 -0.11463262 0.16422635 0.50568086
0.24300656 -0.0586198 -0.065789804 -0.08046918 0.07480882 -0.030651426 -0.11993562 -0.37477583
0.04741647 0.30258894 0.51779175 -0.051103614 0.45531106 0.12112166 0.31022757 0.19329505
0.28911003 -0.3356598 -0.17997038 0.43451995 -0.09108386 0.33182028 -0.030037776 -0.30704188
0.06663566 0.12310112 0.3877187 0.7134323 0.27381423 -0.3285363 -0.51211077 0.05523339
00000000: 4e97 b0be 26af 45bd a8da 7a3d 8f8c 7f3e
00000010: 0d73 15be 7a59 0b3e a580 89be a699 713e
00000020: c149 37bf 2cde 97ba 27de fd3e f747 e0bd
00000030: 2429 273e fa18 2cbf 29e6 dfbb 53a9 8a3e
00000040: 3ccb a03d c86e ec3e a05f 95be 3af6 0f3e
00000050: 16ab 023f 9f58 d2be cfb1 593e cc83 f03e
00000060: dcd4 773e 783d 8fbc f6de 543e 0d8e 1e3e
00000070: ccfb 0f3f 446d 273f 9b40 2a3f b921 aa3d
00000080: 2aed a63d 1534 58be 8783 cdbb 5a6f dfbd
00000090: b5b3 2e3d 150b 5bbf e72f 1bbe 83da 903e
000000a0: f8da f2be b3da 3e3f 0ffa d23e 63ed 903e
000000b0: e3b0 683d 582d 53be fbe2 f7be 7346 12bf
000000c0: 0d17 f53b 4ef2 bf3b d763 5fbe bd9d 75be
000000d0: deed 1b3f c8f9 4b3e 404b 1f3f c66d b03e
000000e0: 3401 4abe 2b08 0f3f 8130 983e 9320 953d
000000f0: d69c fa3d 7077 da3c 442f eebe 908d 2b3e
00000100: 3157 13bd 08a5 74be bc25 10bf 83e6 083f
00000110: 9a97 89be fe45 11bd e819 843d 2645 13bf
00000120: 7d32 59be 0358 243e 46a7 523c 5f69 253f
00000130: e5c7 0ebd 5332 5dbe 7c91 bdbe 6c5f e63e
00000140: 71a8 cfbd 4c73 88bd 63ff 5dbd 62af 103f
00000150: 1bb0 0f3e d64f 77be d633 3b3e 2ac7 1c3f
00000160: 30e2 21bd 8458 c53e 9e5e 983e 1593 d33e
00000170: d648 9f3e 82c4 eabd f42a 283e 4d74 013f
00000180: b6d6 783e 511b 70bd cebc 86bd 07cd a4bd
00000190: 5e35 993d b318 fbbc cea0 f5bd 9ee2 bfbe
000001a0: c637 423d f0ec 9a3e 008e 043f 0652 51bd
000001b0: 881e e93e a20e f83d 26d6 9e3e 23ef 453e
000001c0: 3b06 943e 9adb abbe 284a 38be 6679 de3e
000001d0: 2d8a babd 59e4 a93e c811 f6bc 9834 9dbe
000001e0: 4778 883d 711c fc3d 1183 c63e 80a3 363f
000001f0: 6131 8c3e e935 a8be b119 03bf 683c 623d

encoder.13.weight f4 [128]
0.6724111 1.0382668 0.9456083 0.45908374 1.1096494 1.0542336 1.1526281 0.6027899
0.71189547 1.1373031 0.96019816 1.0218607 1.0879847 0.7288169 1.0560309 0.9222215
0.756552 1.003303 1.1780888 0.6472686 0.8746164 0.9282798 0.8473238 0.93101424
1.0891302 1.2525637 1.2869142 1.1317838 1.0833489 1.1088837 1.0941818 0.77155304
0.8683428 1.539007 1.1641881 1.183484 1.0298778 1.4396143 1.1327538 1.187396
1.0161892 0.9378531 0.8247488 1.2477773 0.94052744 1.2294825 1.10141 1.311915
1.1810766 1.1783905 0.71121067 0.73547274 1.1059629 1.0328379 0.92804945 1.066225
1.5869378 1.167679 0.971637 1.3270698 1.0211487 0.89706856 1.1978296 0.20400962
0.89454013 0.706279 1.1311449 1.1523095 0.97876674 0.9161551 1.0350199 0.7791151
0.72493684 0.9395702 1.6985987 0.50820076 1.1106083 1.2039869 1.003584 0.8041525
1.1390624 1.0031414 1.0490357 1.361788 0.67428213 0.9100441 1.0009214 0.8067426
1.1000202 0.83113396 0.97270054 1.0422878 1.1284006 0.8751824 1.1958402 0.75261974
1.1141154 1.0624895 1.1242298 0.9413454 1.1138207 1.2448777 1.0318526 1.0945635
0.88052094 1.2606173 1.2287946 1.2291635 1.1485068 1.261844 1.1543475 1.0606451
0.5104381 0.8836447 0.872407 0.93478054 1.091441 0.95421433 1.037007 1.0790684
1.1930565 0.973798 1.2584811 1.195568 0.73991245 1.1141778 1.1580433 0.9961687
00000000: 2223 2c3f ede5 843f 6313 723f 060d eb3e
00000010: fe08 8e3f 20f1 863f 5189 933f 7050 1a3f
00000020: c83e 363f 2693 913f 8ccf 753f 55cc 823f
00000030: 1543 8b3f bf93 3a3f 052c 873f b516 6c3f
00000040: 64ad 413f 3c6c 803f 9dcb 963f 65b3 253f
00000050: dce6 5f3f bfa3 6d3f 36ea 583f f356 6e3f
00000060: 9e68 8b3f 0254 a03f 9bb9 a43f 4bde 903f
00000070: 2dab 8a3f e7ef 8d3f 260e 8c3f 8084 453f
00000080: b74b 5e3f 2efe c43f 1e04 953f 677c 973f
00000090: 09d3 833f 4845 b83f 14fe 903f 98fc 973f
000000a0: 7d12 823f 2417 703f bd22 533f 2bb7 9f3f
000000b0: 68c6 703f af5f 9d3f 01fb 8c3f d5ec a73f
000000c0: 852d 973f 80d5 963f e711 363f f147 3c3f
000000d0: 3190 8d3f 0834 843f a694 6d3f 107a 883f
000000e0: c720 cb3f 8176 953f 34bd 783f 6cdd a93f
000000f0: 00b5 823f 49a6 653f 7b52 993f e6e7 503e
00000100: 9500 653f b3ce 343f 5bc9 903f e17e 933f
00000110: 7590 7a3f 2489 6a3f 887b 843f 1674 473f
00000120: 7695 393f ac87 703f af6b d93f 7219 023f
00000130: 6a28 8e3f 3e1c 9a3f 7175 803f f0dc 4d3f
00000140: cccc 913f f066 803f cd46 863f 124f ae3f
00000150: c19d 2c3f a6f8 683f 311e 803f af86 4e3f
00000160: 76cd 8c3f 32c5 543f e702 793f b069 853f
00000170: 6e6f 903f f40b 603f 4b11 993f b0ab 403f
00000180: 559b 8e3f a8ff 873f c3e6 8f3f 03fc 703f
00000190: ad91 8e3f 2758 9f3f bf13 843f a81a 8c3f
000001a0: d269 613f e85b a13f 2449 9d3f 3b55 9d3f
000001b0: 4502 933f 1b84 a13f a9c1 933f 38c3 873f
000001c0: 12ac 023f 8a36 623f 1156 5f3f c74d 6f3f
000001d0: 57b4 8b3f 6447 743f a5bc 843f ea1e 8a3f
000001e0: 13b6 983f d34a 793f e915 a13f 5f08 993f
000001f0: e76a 3d3f 619d 8e3f c33a 943f e904 7f3f

encoder.13.bias f4 [128]
-0.5155146 -0.28171226 -0.5755921 -0.80022794 -0.24226518 -0.6600892 -0.24184693 -0.73963445
-0.53115076 -0.26643258 -0.4046511 -0.34748328 -0.27390733 -0.5292881 -0.26430884 -0.37020245
-0.5333063 -0.7609097 -0.13588482 -0.8301407 -0.7387742 -0.2133738 -0.4155264 -0.43795627
-0.30352774 -0.22658864 -0.7910626 -0.26980478 -0.2655526 -0.24522938 -0.13172762 -0.4164442
-0.42427582 -0.88218135 -0.09540906 -0.23965551 -0.25701913 -1.116192 -0.21483473 -0.2624362
-0.40853688 -0.681758 -0.42206582 -0.22621173 -0.39765 -0.046131972 -0.27188417 -0.17354077
-0.18987294 -0.20834146 -0.63165045 -0.7564236 -0.736321 -0.37581795 -0.4973441 -0.36466947
-0.7440017 -0.25021303 -0.32647315 -0.24961896 -0.30751556 -0.47832605 -0.5964896 -0.6636149
-0.578569 -1.0315193 -0.24673739 -0.1896103 -0.54359734 -0.83857703 -0.31017154 -0.46109524
-0.7894272 -0.37902763 -1.1959273 -0.761031 -0.29096135 -0.19667797 -0.30942208 -0.47611424
-0.24236633 -0.3567435 -0.7192491 -0.18863925 -0.61989635 -0.5396038 -0.2980494 -0.51420605
-1.043728 -0.5600469 -0.39096135 -0.46149898 -0.2598404 -0.42201713 -0.14663729 -0.4471868
-0.19786663 -0.21639095 -0.23461246 -0.428292 -0.80493027 -0.24211313 -0.32244116 -0.27440226
-0.83479893 -0.15159449 -0.2201197 -1.251156 -0.22717878 -0.15714736 -0.24386753 -0.35208777
-0.6717609 -0.5168437 -0.5336971 -0.35122222 -0.27583697 -0.35143423 -0.35816628 -0.33582914
-0.32416224 -0.48171178 -0.17994604 -0.22763532 -0.6635169 -0.28733385 -0.20618558 -0.3135979
00000000: c4f8 03bf 973c 90be 015a 13bf bddb 4cbf
00000010: 5d14 78be 9bfb 28bf b9a6 77be af58 3dbf
00000020: 7ff9 07bf da69 88be 6e2e cfbe 54e9 b1be
00000030: 953d 8cbe 6d7f 07bf 7d53 87be 2d8b bdbe
00000040: c386 08bf faca 42bf 6425 0bbe 1a84 54bf
00000050: 4e20 3dbf a97e 5abe e0bf d4be ce3b e0be
00000060: fd67 9bbe da06 68be 1483 4abf da23 8abe
00000070: 83f6 87be 691d 7bbe 9be3 06be 2d38 d5be
00000080: ae3a d9be a3d6 61bf d365 c3bd 4168 75be
00000090: 0398 83be 61df 8ebf a3fd 5bbe 0a5e 86be
000000a0: bf2b d1be b187 2ebf 0319 d8be 0ca4 67be
000000b0: c898 cbbe e1f4 3cbd 6734 8bbe acb4 31be
000000c0: 0d6e 42be 7757 55be d8b3 21bf faa4 41bf
000000d0: 887f 3cbf 366b c0be e3a3 febe f5b5 babe
000000e0: e576 3ebf ec1b 80be 7d27 a7be 1d9c 7fbe
000000f0: ae72 9dbe 27e7 f4be 8bb3 18bf abe2 29bf
00000100: 191d 14bf d308 84bf baa8 7cbe 3429 42be
00000110: 3229 0bbf fcac 56bf cece 9ebe ad14 ecbe
00000120: e717 4abf e90f c2be 2514 99bf edd2 42bf
00000130: e3f8 94be f365 49be 926c 9ebe 3fc5 f3be
00000140: e12e 78be 16a7 b6be b620 38bf a62a 41be
00000150: 87b1 1ebf 7a23 0abf ee99 98be 02a3 03bf
00000160: e198 85bf 3c5f 0fbf 162c c8be 9849 ecbe
00000170: cd09 85be a112 d8be 1628 16be abf5 e4be
00000180: 8d9d 4abe 9795 5dbe 403e 70be 1749 dbbe
00000190: e90f 4ebf 81ec 77be 0217 a5be 747e 8cbe
000001a0: 62b5 55bf 963b 1bbe 0f67 61be e125 a0bf
000001b0: 8ea1 68be 3deb 20be 69b8 79be d944 b4be
000001c0: 86f8 2bbf de4f 04bf 60a0 08bf 66d3 b3be
000001d0: 813a 8dbe 30ef b3be 9261 b7be ccf1 abbe
000001e0: 98f8 a5be eda2 f6be c643 38be 3c19 69be
000001f0: 3edc 29bf 6c1d 93be 5022 53be e78f a0be

encoder.13.running_mean f4 [128]
-3.374008 -1.2025261 -1.969392 -1.3033757 -1.2834435 -1.2998703 -1.9257998 -1.4978087
-2.7862704 -1.1987495 -2.099065 -1.9217871 -1.5534217 -1.2413516 -1.3502054 -1.1378269
-3.303048 -3.404335 -1.1278129 -1.0813692 -0.93653655 -1.3168796 -0.87572014 0.049333535
-2.4638028 -1.7147261 -1.4174551 -2.391628 1.4335984 1.0322231 -0.61258626 -2.5655005
-2.0972655 -1.0359771 -1.0366596 -2.11402 -2.0420444 -4.104529 -1.7967442 -2.1638987
-1.6759672 -0.090267874 -1.1126423 -1.229412 -0.5422292 -0.16916268 -2.2480605 -2.3202155
-2.0533822 -1.7012792 -1.2458005 -0.5862706 -1.396876 -2.263496 -0.5582918 -1.2138671
-0.8473613 -1.4396405 0.31769577 -2.966573 -2.4182413 -1.2074813 -0.40958577 -1.1862426
-2.2948112 -2.859991 -2.4215508 -2.5423298 -1.7889363 -1.4303714 -0.3396216 -2.3956287
-3.926547 -1.1574364 -2.6378787 -1.3017101 -1.3907859 -2.1708274 -2.2709775 -2.2615716
-2.6975324 -1.5169998 0.82544214 -2.0656743 -1.1824487 -1.0751071 -1.8181659 -0.9852563
-1.5591651 -1.448202 -1.4844104 -1.0638031 -1.5983821 -2.692944 -2.1003442 -2.011466
-1.8545334 -1.3401984 -2.0190377 -1.2698995 -1.073175 -1.8095486 -1.1360617 -2.03024
-0.66718227 -2.2002854 -1.2669455 -0.46472892 -1.4224441 -1.511676 -1.3083982 -0.8860684
-4.080767 -3.8394697 -3.0962296 -0.64218056 -3.1332967 -1.5579928 -3.1103983 -3.751191
-0.9523177 -1.0927638 -0.43655157 -2.2371583 -1.8397995 -1.6276194 -2.0344777 -0.6684157
00000000: bfef 57c0 60ec 99bf 0915 fcbf 04d5 a6bf
00000010: e047 a4bf 2662 a6bf 9c80 f6bf 32b8 bfbf
00000020: 4152 32c0 a070 99bf 1557 06c0 1ffd f5bf
00000030: 86d6 c6bf 9ce4 9ebf 88d3 acbf 50a4 91bf
00000040: 2365 53c0 a0e0 59c0 2c5c 90bf 4e6a 8abf
00000050: dcc0 6fbf 838f a8bf 322f 60bf f611 4a3d
00000060: f2ae 1dc0 257c dbbf 2b6f b5bf 6f10 19c0
00000070: 2780 b73f e31f 843f 74d2 1cbf 2931 24c0
00000080: 9939 06c0 e69a 84bf 43b1 84bf 1b4c 07c0
00000090: dbb0 02c0 4d58 83c0 b7fb e5bf 517d 0ac0
000000a0: 1886 d6bf 5dde b8bd 106b 8ebf 5f5d 9dbf
000000b0: 88cf 0abf fb38 2dbe 39e0 0fc0 697e 14c0
000000c0: 9d6a 03c0 84c3 d9bf 6476 9fbf d415 16bf
000000d0: d5cc b2bf 1edd 10c0 36ec 0ebf ff5f 9bbf
000000e0: acec 58bf 2446 b8bf 05a9 a23e 55dc 3dc0
000000f0: 77c4 1ac0 bf8e 9abf 3ab5 d1be ccd6 97bf
00000100: 30de 12c0 180a 37c0 b0fa 1ac0 88b5 22c0
00000110: ddfb e4bf 6916 b7bf e2e2 adbe fb51 19c0
00000120: 8c4c 7bc0 e026 94bf 01d3 28c0 709e a6bf
00000130: 4605 b2bf d6ee 0ac0 b257 11c0 97bd 10c0
00000140: 5fa4 2cc0 0d2d c2bf 2d50 533f 0234 04c0
00000150: 7b5a 97bf 1c9d 89bf a9b9 e8bf c239 7cbf
00000160: b992 c7bf af5e b9bf 2901 bebf b32a 88bf
00000170: c997 ccbf 3259 2cc0 0a6c 06c0 dcbb 00c0
00000180: 5a61 edbf 9f8b abbf ea37 01c0 118c a2bf
00000190: cc5d 89bf 4a9f e7bf 786a 91bf 74ef 01c0
000001a0: 75cc 2abf 7ad1 0cc0 452b a2bf f3f0 edbe
000001b0: a612 b6bf 997e c1bf 9879 a7bf 61d5 62bf
000001c0: a595 82c0 dfb9 75c0 a028 46c0 f265 24bf
000001d0: ef87 48c0 4f6c c7bf c410 47c0 8313 70c0
000001e0: 18cb 73bf afdf 8bbf b083 dfbe 9a2d 0fc0
000001f0: 8d7e ebbf d555 d0bf e234 02c0 4b1d 2bbf

encoder.13.running_var f4 [128]
4.765953 5.3710794 5.6055126 6.4000545 6.6187916 4.4856863 5.698087 4.581644
5.976121 6.3315816 5.936618 4.7509975 4.777102 5.0953145 5.6147876 8.127744
6.099791 5.614858 7.0139637 4.247522 5.7641654 7.092752 6.0765414 5.6626077
4.0228505 4.8519926 4.492445 6.5060916 5.6462593 7.1907496 5.074492 6.0035253
8.650129 5.094891 6.0833178 5.2554135 6.9314585 4.604721 7.5071697 6.9333696
4.4972935 3.3192196 4.3954825 4.631069 6.7869005 6.4041796 4.4447446 4.8192005
5.8373513 8.018851 6.6073227 3.1660864 5.9478736 5.5799484 4.95007 6.352878
4.1844544 5.558358 5.1643543 7.390412 6.4965196 4.9070106 4.8091097 10.173656
6.340317 5.2167363 5.021412 7.657108 6.5840926 3.6466525 4.6742573 7.2501125
8.41651 5.5294456 5.7129817 7.701345 5.3835783 5.6416245 7.308854 5.7157044
5.3566904 4.2746367 3.1883497 6.5484266 5.228457 5.7553854 5.8765855 5.544542
3.9899907 5.3049135 5.188963 3.3434377 7.049017 6.2496624 7.449545 4.0098577
6.538538 6.32254 7.1069427 5.308934 3.3695853 4.305524 5.407112 8.111835
3.033835 7.971955 7.1241446 3.3341603 6.396701 6.6715016 3.6655378 5.1103425
5.7277784 4.5391855 4.486824 3.8269768 3.8327377 4.277457 6.571888 6.5799875
5.2495604 7.5348744 7.898602 8.221456 4.071663 5.1303606 5.541317 5.5371733
00000000: b082 9840 e2df ab40 5c60 b340 3fcd cc40
00000010: 24cd d340 be8a 8f40 bb56 b640 d49c 9240
00000020: 623c bf40 519c ca40 c6f8 bd40 2c08 9840
00000030: 05de 9840 d10c a340 57ac b340 3d0b 0241
00000040: 7d31 c340 ebac b340 6472 e040 b3eb 8740
00000050: 0b74 b840 d3f7 e240 0773 c240 1534 b540
00000060: 31bb 8040 8643 9b40 1cc2 8f40 e731 d040
00000070: 28ae b440 9f1a e640 3d62 a240 e11c c040
00000080: ee66 0a41 5909 a340 8aaa c240 592c a840
00000090: 82ce dd40 e059 9340 bc3a f040 2ade dd40
000000a0: d4e9 8f40 186e 5440 cba7 8c40 b831 9440
000000b0: 4a2e d940 0aef cc40 593b 8e40 e436 9a40
000000c0: 95cb ba40 374d 0041 306f d340 29a1 4a40
000000d0: fb54 be40 f08e b240 f966 9e40 c74a cb40
000000e0: 0de7 8540 12de b140 6442 a540 417e ec40
000000f0: 7de3 cf40 3b06 9d40 3ae4 9940 4cc7 2241
00000100: e0e3 ca40 81ef a640 68af a040 0707 f540
00000110: e3b0 d240 c162 6940 8493 9540 ec00 e840
00000120: 06aa 0641 38f1 b040 bfd0 b640 6b71 f640
00000130: 4646 ac40 3088 b440 22e2 e940 0de7 b640
00000140: 026a ab40 d3c9 8840 ec0d 4c40 b68c d140
00000150: 854f a740 1e2c b840 fd0c bc40 e36c b140
00000160: 025c 7f40 dac1 a940 fc0b a640 e2fa 5540
00000170: 8c91 e140 3cfd c740 ac62 ee40 c150 8040
00000180: b43b d140 3f52 ca40 136c e340 cae2 a940
00000190: 49a7 5740 dac6 8940 1007 ad40 13ca 0141
000001a0: 5a2a 4240 411a ff40 fef8 e340 e262 5540
000001b0: c6b1 cc40 f17c d540 2c98 6a40 ed87 a340
000001c0: f649 b740 0241 9140 1094 8f40 30ed 7440
000001d0: 934b 7540 eee0 8840 e84c d240 428f d240
000001e0: 66fc a740 b11d f140 59c1 fc40 158b 0341
000001f0: 104b 8240 ea2b a440 7852 b140 8630 b140
