checkpoints/best_cnn_model_ppg_ecg.pt (torch, 184234 bytes, 28 tensors)

encoder.0.weight f4 [16, 2, 7]
00000000: 3fa6 523f 8bdd 1a3f ed41 9d3d 3381 833e
00000010: 5c4f a3be ab21 07bf 3036 7fbf cc13 17bd
00000020: 61a7 263e f8af 86be 9269 443e 2a03 31be
00000030: 261f 993d 9ef4 46bb 15f3 97bd 8ce3 12be
00000040: dc7b 9d3e 5fe9 6b3d 6d9c 1bbe c0cc 513d
00000050: 60bf 51bd 4a50 efbf 48b1 e1bf 2f45 333e
00000060: 4bca 28bf 3bbc 3fc0 ae01 1cc0 094f 9cbf
00000070: 749e 183e 3606 81be e370 5d3e 640e 97be
00000080: 64f7 343e e63c 703d 46c8 77bd 97c8 0e40
00000090: d33e c040 d9e5 e63f b8d8 023e 148a 523f
000000a0: 1c75 7e3f 88a1 a6bf 6952 133d c0b9 343e
000000b0: 1b01 19bd ce12 96be 4bbf a3bc 0199 7bbd
000000c0: e41b 483e f76a 33c0 a331 ebbf a1cd e0bf
000000d0: 23ec f4be 0ecf 6d3f be6f 823f 8080 9c3f
000000e0: 124b 1d3b 445b e3bc 0ab2 5e3e c2c4 35be
000000f0: a860 ba3c 1f89 70be 0809 463e 6f6d 8e3e
00000100: 190b 993d cb7e 0e3e d392 7b3f 62e2 403f
00000110: aacf 31bf 091c 92c0 7687 503f bb1b 153f
00000120: 6d27 113f b7ea 5dbe fbd1 0ebf 23de 25bf
00000130: bcca febe 4ab2 38bd 9481 513d 33f9 853d
00000140: 71b3 d9bc 7fa5 5fbd 0579 8b3c 9e05 063c
00000150: 22a6 313e ae31 dabc c8d3 923d 2d97 8ebe
00000160: 989c 3ebe 6842 6d3d 6dc0 4b3e 72c3 6fbf
00000170: 879e 9c3f c107 553f 5e6f bfbf 8064 39bf
00000180: 5e2d 8c3f 39c2 11be a0b5 b63d 0a9d 00be
00000190: b999 98bc 1d35 183e 4922 163c 533e 27be
000001a0: e0a2 8d3d 09ea b2bf 484d dfbf 0371 a0c0
000001b0: bf41 89c0 255a 22bf 82cf 8a3f a29c b73d
000001c0: 9f07 8f3f 7e7d 953d 1e39 6cbe 46c2 72bf
000001d0: 8a51 f4bf a4b0 6dbf 0fec 113f ae2b e3bd
000001e0: e5a4 85bc 303e 60bd 7c2d aabc 1cb7 dbbc
000001f0: 1826 513d 4b63 e43d 9357 aebe dd40 98be
00000200: 560b d43e 85b6 6a3e 7e17 f23e cba4 c73d
00000210: 3e99 1abf 6865 bf3e d31b 2b3f 4515 7b3e
00000220: 431a ffbf 57b7 aabf 3714 803f e86d 5abe
00000230: 4f49 913d 5041 3fbe 2d31 783e e384 29be
00000240: 8c58 92bb 8ba9 5e3d 83a3 b9ba 8f45 7040
00000250: 5f7b f63e 5ce7 d6be d1ea 843e e477 31be
00000260: efdb fcbe 4811 02c0 a5f6 ee3f 0e67 3c3e
00000270: 4776 b1bd b3ac bbbe a484 e5be 1b61 fbbe
00000280: a63f 703e 81fd 9fbb 3442 273d 7b05 7fbd
00000290: 0ea8 a53d 6743 2bbd 097d 543d e06d a5bc
000002a0: 4ad5 b33d 9142 e3bd fb59 15be c2a5 a43d
000002b0: b7cb 583e 98bb c8bc b23c c1bd e460 16c0
000002c0: 43e5 92bf 8016 1a3f 0033 6b3f 2912 80be
000002d0: 4b4c c7be d28c f73f f6d1 853b 4f15 3cbe
000002e0: 86c5 603c 066f 163e 1ddc 1c3e 4ee7 6f3c
000002f0: 4abd 30be 5a5d 933e 505d 52bf ecab 8fbf
00000300: aa92 053f 31f2 dd3f e942 bcbe 4def 9ebf
00000310: 1ef9 813c 9757 6b3c fc03 8b3d 7362 9f3d
00000320: ea96 72be da6f 14be 805f 6a3e b0b9 3b3f
00000330: 504a 003f 0e4b fdbe db05 5ec0 7a27 f4bf
00000340: 3a09 103f f36c 413f c476 083f 750a d23d
00000350: 0a3b 35bf 59fb 2fbf 4fb4 d1be 3fa4 dc3e
00000360: 5f41 6a3f 15ae 82be ad11 e43e d99e 9ebe
00000370: fb61 2abf 1e9e 1f3f 89bc 49be 8771 22be
0.8228492 0.604943 0.0767859 0.2568451 -0.31896484 -0.5278575 -0.9969206 -0.036884114
0.16274787 -0.26306129 0.19180897 -0.17286363 0.07476644 -0.0030358206 -0.07419411 -0.14344615
0.3075856 0.057595607 -0.1519639 0.051220655 -0.0512079 -1.8696377 -1.7632227 0.1750686
-0.65933675 -2.9958637 -2.4376025 -1.221162 0.14904195 -0.2520005 0.21625094 -0.29503167
0.17672497 0.058651827 -0.06049373 2.230993 6.007669 1.8038894 0.12777984 0.8224194
0.99397445 -1.3018045 0.035967264 0.17648983 -0.03735457 -0.29311222 -0.019988677 -0.061425213
0.1954189 -2.8034036 -1.8374523 -1.7562753 -0.47836408 0.92894065 1.0190351 1.2226715
0.0024001044 -0.02775348 0.21747604 -0.17750838 0.022751167 -0.23489808 0.19339383 0.27817866
0.0747282 0.13915555 0.9827091 0.7534543 -0.69457495 -4.5659223 0.81456697 0.5824544
0.56700784 -0.21671568 -0.55789155 -0.6479208 -0.4976405 -0.045091905 0.051148966 0.065416716
-0.026574822 -0.05460119 0.01702548 0.00818005 0.17348531 -0.026635017 0.071693 -0.27849713
-0.18614423 0.057924658 0.19897623 -0.936576 1.2235879 0.83214957 -1.4955862 -0.72418976
1.0951345 -0.14234246 0.08921361 -0.12559906 -0.018627988 0.14864011 0.009163448 -0.16332369
0.069158316 -1.3977672 -1.7445459 -5.0137954 -4.2892756 -0.634188 1.0844576 0.08965422
1.1174201 0.07299326 -0.23068663 -0.9482769 -1.9087384 -0.9284766 0.5700082 -0.110923156
-0.01631398 -0.054746807 -0.020773642 -0.026820712 0.05106172 0.11151751 -0.3405119 -0.29736987
0.414149 0.22921188 0.47283548 0.09748229 -0.6039008 0.37382054 0.6683933 0.24519832
-1.992989 -1.3337201 1.0006169 -0.21330988 0.07094061 -0.18677258 0.24237509 -0.16554599
-0.004466122 0.054360908 -0.001416311 3.7542455 0.48141 -0.41973388 0.259604 -0.17330891
-0.49386546 -2.0323048 1.866902 0.18398687 -0.08665138 -0.36655197 -0.4482776 -0.49097523
0.2346178 -0.004882515 0.04083462 -0.062261086 0.080886945 -0.041812327 0.051877055 -0.020193994
0.08780916 -0.11096681 -0.14585106 0.08039428 0.21171461 -0.024503514 -0.09435405 -2.3496637
-1.1476215 0.6019058 0.91874695 -0.25013855 -0.38925394 1.933985 0.004083867 -0.18367504
0.013718968 0.1469079 0.15318342 0.01464255 -0.17259708 0.2878216 -0.82173634 -1.1224341
0.52176917 1.7339536 -0.36769798 -1.2416779 0.015865859 0.014364145 0.06787869 0.077824496
-0.23690382 -0.14495793 0.22887993 0.7333021 0.5011339 -0.49471325 -3.4691074 -1.9074547
0.5626408 0.7555687 0.5330622 0.10255901 -0.7079321 -0.687429 -0.40957877 0.4309406
0.91506 -0.2552344 0.44544736 -0.30980566 -0.66555756 0.6235064 -0.19700827 -0.1586362

encoder.0.bias f4 [16]
00000000: 6f03 30bf 3d05 d23e 6e27 573d bcfe cfbe
00000010: 2bd4 26bf bde5 75bf dd5a 32bf ad61 803f
00000020: cf67 2c3f 3066 a6bc 7861 b83e b3cf dbbd
00000030: 2273 9ebe 7837 7ebc e320 79be 6c42 7abf
-0.6875524 0.41019621 0.052527837 -0.40624034 -0.6516749 -0.9605368 -0.69669896 1.0029808
0.673459 -0.020312399 0.36011863 -0.10732975 -0.30947214 -0.0155161545 -0.24328952 -0.977576

encoder.1.weight f4 [16]
00000000: e279 333f 0de4 973f 8b40 b93f 9474 b33f
00000010: f66a cb3f bc75 a33f 002f 5e3f baea dc3f
00000020: 9466 093f 3af2 463f cc10 d03f 1dea 463f
00000030: b3a0 e53f c9d2 4c3f 6b5d d63f e7d3 7a3e
0.70107853 1.186647 1.4472822 1.4019952 1.5892017 1.2770305 0.86790466 1.7259133
0.53672147 0.7771336 1.6255126 0.7770098 1.7939667 0.8000913 1.6747259 0.24494897

encoder.1.bias f4 [16]
00000000: 18fe cbbe 9e0e 04bc f971 843d febf 5c3e
00000010: 1f20 a03e 6716 233e 63c1 1d3f 5861 513e
00000020: 3c51 b43b 62a2 343e ae32 5dbd 23ee db3e
00000030: 2a06 163e 1df3 0d3f 132c 6abe f74f 773e
-0.39842296 -0.008060126 0.06467051 0.21557614 0.31274506 0.15926515 0.6162321 0.2044729
0.005502848 0.17640069 -0.05400341 0.4295512 0.14650789 0.55449086 -0.22868375 0.24151598

encoder.1.running_mean f4 [16]
00000000: ee45 30bf f180 d33e 443d 4e3d ab4f d0be
00000010: 42bd 26bf 2a94 75bf a8b8 31bf 630c 813f
00000020: 5459 2c3f 967a 99bc a34b b83e ec42 ddbd
00000030: c71f a0be cf36 5cbc f57b 75be bbfa 79bf
-0.68856704 0.41309312 0.050351396 -0.40685782 -0.65132535 -0.95929205 -0.6942239 1.0081905
0.67323804 -0.018735211 0.35995206 -0.1080378 -0.31274244 -0.013440802 -0.23973067 -0.9764821

encoder.1.running_var f4 [16]
00000000: edbc 533e d976 1740 484c 7240 8b8e bb3f
00000010: f127 513f 0fbd 373e a487 e93c c559 9740
00000020: 9e72 d83f 46c8 3e3e 6c21 563f 858b a93e
00000030: af3a d73e 0c03 a93d 2056 503f 738a ec3c
0.20677538 2.366629 3.7859058 1.4652876 0.8170157 0.17943214 0.028507061 4.729708
1.6909978 0.18631086 0.8364475 0.33114257 0.4203696 0.08252534 0.81381416 0.028874611

encoder.4.weight f4 [32, 16, 5]
00000000: 6eb6 eebe e774 a6bd 781b 1ebe 052e b8bd
00000010: cdb2 85bd 40b2 90bf 09fa b5bf 8463 163f
00000020: 9208 16bf 298b 30bf bf70 39bd 3704 89bf
00000030: 49c5 e2bf a71e 94bf 75b0 70bf 42e4 e8bc
00000040: 3871 bd3d c880 283c 4c56 b9bd 3a43 be3e
00000050: 6ecf 58bf 2171 b33e 62d3 683f ed06 d83e
00000060: 8cfe ac3e 094e aa3c fb6f b53d 9599 4c3d
00000070: a3d3 9f3d 3430 cebd 0cbb 623f 90d7 a3be
00000080: 454d 5c3e 1fc3 64be 6c2a 793e 159e 893c
00000090: 527c 27bf 483e 2cbf fd85 813e fb8b 213e
000000a0: ae64 5abd 088e 163c cc7e b6bc 7d9f 39be
000000b0: a51b 9ebe 3de1 2c3f e56e ebbd 67b8 2dbe
000000c0: 98f0 a43d 208a 103f 2fcd 6cbe 23da 41bf
000000d0: 9078 9fbf 5b8e c5be b40a fbbe 6499 573c
000000e0: a105 e5bd 80ff f23d 17bb 3a3d 6ed9 e9bd
000000f0: 0659 c03e d204 03be ba37 8f3e 637a 8b3d
00000100: 1a20 7abe 670d 6abd a1ed a03e 9ace 133f
00000110: 02ed 41bd 6aa8 183f 5870 053f 0d45 f73d
00000120: 0171 853e f841 4b3f ff8b fb3e ad6b a23d
00000130: d8b5 58be 3ce4 dabe 7683 cf3d 4fa0 f4bd
00000140: 8e8c 86bd 473f 5f3e 8495 c53e 4f68 debe
00000150: cd51 6f3d c49c f5be 17ef 97be 3b31 4e3f
00000160: c8be 1f3f 08e7 073f 80fe 7f3e 9377 56bf
00000170: 74d2 cfbf 57f7 5bbe 747f 783f ff27 27c0
00000180: 99d7 a7bf 5d86 2c3e aaf1 c1be 68e9 e23d
00000190: 4be8 60bd a290 afbb bac6 0b3e 267e 7e3e
000001a0: 8c89 99be d1a1 67be 866d c03c 1e4b 04bd
000001b0: c3d9 66bd 418d 4bbe 5104 52bd 32b0 bf3e
000001c0: c52b 073f 2967 443f 743a 56bf 4864 b3bf
000001d0: 6785 1abe 2b05 73be ac58 bbbe 1054 ee3e
000001e0: cf02 f9be b22e 1cbe 9fa1 353d b8c8 6a3e
000001f0: 373c 10bf 95cc 4abe 8a7e cfbe ddc4 f53e
00000200: 7f74 353e b445 99be 487a 4d3f 2ffb a43c
00000210: 6d98 f6be b3ba e3be 45ae a9be e5c3 323d
00000220: 3203 01bd 77c3 dfbc 0dfd 3f3e 8447 24be
00000230: fad9 2fbf 15fb 35bf 1337 c73d 0df4 aa3c
00000240: dd0f bf3d a6dd a0be 0996 f7be 0725 bf3f
00000250: 862e f3be 8252 fcbe 7110 75bf 63a2 0bbf
00000260: 27aa 4abe 601e 4f3e 85b0 9f3e e1f6 0abf
00000270: 1015 3cbd 5ad8 0abe ba66 07bc 2b01 96be
00000280: 2897 6a3d e09a d13e 7a5a 973f 9dbe 0b3f
00000290: 29c4 d6bf 06ab 783d 49d2 a13c b45e a43d
000002a0: 73e6 c4bc 3de1 1fbd a6dd 90bb 5d7c f53c
000002b0: 5222 d93b 680d fabc 94d0 d13c 6646 9cbd
000002c0: 4506 28bd f47b c33d 15a7 f1bd 7d77 b73b
000002d0: a580 8b3b 3167 05be 82eb 29bd ff6b cf3d
000002e0: 6728 fb3b 735c d2bf cf58 83bf 5e1f 14be
000002f0: 4376 d23f 9f5e 1840 bb8e 823c 1be3 c5bc
00000300: 92fa cdb8 794d 7f3d bb11 7fbc 7153 7fbd
00000310: ab83 333b 9813 e0bc 78d8 833d caff 16bd
00000320: 586a dcbf 8aa3 64bf 88de 0cbe 8ccc f9bb
00000330: c38b 873e 7960 d9bc ccef 573d c2e7 863e
00000340: 4efb 443c cec5 91be 61ad 03bd c1e5 1cba
00000350: 5fbc b53b 27de 9dbc b51d 38bd 4cdd 06c0
00000360: a680 80bf 479e 3cbe 3d43 95be d154 43be
00000370: 8bed 693d feeb bf3b 023c a13b 9e92 c03c
00000380: 3676 e9bb a06c 2abd 2390 093e b9d3 453d
00000390: aaa7 98bd 4ee6 a8bc 43fd 0a3d 73b6 bbbd
000003a0: ec7b adb9 0609 6abc 58aa a43d 6f6a 963d
000003b0: 4ec6 f5be 6531 e3be cd8e b6bd 25de 2d3f
000003c0: decd 4bbe ece1 843d fae7 413e 5ae6 3bbe
000003d0: 2310 d4be 402a 283f 5d5a d73e 8c91 21bf
000003e0: b195 953e 1d5d 3e3f a464 563f 7efc e83d
000003f0: 4d88 463f d17a d23e 2b46 9abe 6018 8cbf
-0.46623558 -0.08127766 -0.15440166 -0.089931525 -0.06528244 -1.1304398 -1.421693 0.587456
-0.5860683 -0.6896234 -0.04527354 -1.0704411 -1.7716457 -1.1571854 -0.9401925 -0.028429154
0.092501104 0.01028461 -0.09049663 0.37160665 -0.8469151 0.35047248 0.90947545 0.42192784
0.33787954 0.020789163 0.08859249 0.049951155 0.078040384 -0.10067788 0.8856666 -0.320004
0.21513851 -0.22340058 0.24332589 0.016799012 -0.6542407 -0.67282534 0.25297537 0.15776055
-0.053318672 0.009189136 -0.022277258 -0.18127246 -0.30880466 0.67531186 -0.11495761 -0.16964875
0.08053702 0.5646076 -0.23125146 -0.75723475 -1.2458668 -0.3858517 -0.49031603 0.01315913
-0.11182714 0.11865139 0.04558858 -0.114184245 0.3756792 -0.12794808 0.27972203 0.06810453
-0.24426308 -0.057141688 0.31431296 0.57737124 -0.04734517 0.5963198 0.5212455 0.12073717
0.26062778 0.79397535 0.49130246 0.07930694 -0.21163118 -0.42752254 0.10132496 -0.11944639
-0.065697774 0.21801482 0.38590634 -0.43438956 0.05842762 -0.47971165 -0.296746 0.8054387
0.62400484 0.530869 0.24999428 -0.83776206 -1.62361 -0.21481071 0.9706948 -2.6118162
-1.311267 0.1684813 -0.37879688 0.11079675 -0.05490903 -0.0053578177 0.13650027 0.2485281
-0.29987752 -0.22620322 0.023489725 -0.0322982 -0.056360018 -0.19878103 -0.051273648 0.37439114
0.5280116 0.7671991 -0.8368294 -1.4014978 -0.15089951 -0.2373244 -0.3659109 0.4654851
-0.48634955 -0.15252188 0.044343587 0.2292813 -0.5634188 -0.19804604 -0.4052623 0.48001757
0.17720221 -0.29935992 0.8026471 0.020139305 -0.48163167 -0.44478378 -0.3314077 0.04364385
-0.031497188 -0.027314885 0.18748875 -0.16042906 -0.6869198 -0.71086246 0.097273014 0.020868326
0.093291976 -0.31419104 -0.48356655 1.4933175 -0.47496432 -0.49281698 -0.9572821 -0.5454466
-0.1979147 0.20226431 0.3118936 -0.5428296 -0.045918524 -0.13559094 -0.008264238 -0.29297766
0.05727306 0.40938473 1.1824486 0.5458773 -1.6778613 0.060709976 0.019753592 0.08025876
-0.024035668 -0.039033163 -0.004420954 0.029966528 0.0066264058 -0.03052397 0.025612153 -0.07630615
-0.041021604 0.095451266 -0.117994465 0.005598961 0.004257279 -0.13027646 -0.041484363 0.101280205
0.0076647284 -1.6434463 -1.0261477 -0.1446509 1.6442341 2.3807752 0.0159372 -0.024156144
-9.821834e-05 0.062329743 -0.015568192 -0.062335435 0.0027391713 -0.027353093 0.064377725 -0.036865033
-1.7219954 -0.8931204 -0.13756764 -0.007623261 0.26473817 -0.02653526 0.052718922 0.26348692
0.012022806 -0.28471226 -0.03214777 -0.0005985164 0.005546137 -0.01927097 -0.044950206 -2.107257
-1.003926 -0.18419753 -0.2915286 -0.19075324 0.057111304 0.00585699 0.0049204836 0.023507413
-0.0071246875 -0.0416075 0.1343389 0.048297618 -0.074538544 -0.02061763 0.033932935 -0.09165659
-0.0003308946 -0.014284378 0.08040303 0.07344519 -0.48002857 -0.44373623 -0.08913956 0.6791709
-0.19902751 0.06488404 0.18936148 -0.18349591 -0.4141856 0.6568947 0.4206113 -0.6311271
0.29215768 0.7436083 0.83747315 0.11376284 0.7755173 0.41109326 -0.3013166 -1.0944939

encoder.4.bias f4 [32]
00000000: a635 f73e 16e7 253f cfc6 18bf d73b 96bd
00000010: c4b5 d63e a6da c13e f505 983e 5f1b 1b3d
00000020: 143e 3dbe 6e6a e03e 6456 81be e27a 643e
00000030: b8a8 383f 425e 5abe d663 f7bf 46f8 893e
00000040: 558f 32bf 3cf7 a1be 6c81 9ebd 0535 74bf
00000050: 5e6f d83d 5741 57be 17d2 06be cb5a a73e
00000060: 0d3c abbe 56d9 fb3e c941 59bd 68c5 2d3e
00000070: a0be 383f 8f64 fa3c eca9 e33c ac7d bb3e
0.48283118 0.64805734 -0.5967836 -0.07335632 0.4193555 0.37862128 0.29692045 0.0378679
-0.18480712 0.438312 -0.25261223 0.22312501 0.72132444 -0.21325019 -1.9327343 0.2694723
-0.6974996 -0.31633937 -0.07739529 -0.953934 0.105681166 -0.21021019 -0.1316608 0.32686457
-0.33444253 0.49189252 -0.053041253 0.16969836 0.7216587 0.030565528 0.027790986 0.36619318

encoder.5.weight f4 [32]
00000000: 349d a73f dd06 953f dcac 0c3f 4c04 8f3f
00000010: 6c46 9d3f d586 853f f218 a83e 96bd ea3e
00000020: 057c bc3f a6f0 d33f 8533 723f 5661 513f
00000030: 4764 093f 09d0 c13f 10d7 b93f d55b c73f
00000040: 0ef8 e53f 8d95 7a3f 42f4 473f e6aa 0e3f
00000050: 650c 213f 8093 ce3f f3f8 da3f 816b a23f
00000060: 44d3 1d40 a7fb 1640 ee7c e63f ed3e 7e3f
00000070: faa9 0b3f 14a9 5c3f c449 f23f ba08 823f
1.309485 1.164272 0.5495126 1.1173186 1.2287116 1.0431772 0.32831532 0.45847768
1.4725348 1.6557815 0.9460986 0.8178915 0.53668636 1.5141612 1.4518757 1.55749
1.7966325 0.97884446 0.7810708 0.5572952 0.6290954 1.6138763 1.7107223 1.2689058
2.4660196 2.3591096 1.8006876 0.9931477 0.5455624 0.8619549 1.8928761 1.0158913

encoder.5.bias f4 [32]
00000000: 67ef a3bd 8f38 34be 1c59 04be 9328 10bf
00000010: c721 b6bd 1124 7bbc c8d3 d63e 694a bdbc
00000020: e75d 4fbe 2a4c 21be b7da 8bbe 2eff 32be
00000030: cfff dfbe f5d9 3abe 44fe 3e3b 6e19 c3be
00000040: 0cdf d7be c247 efbc b488 14bf 41ef 843e
00000050: 11e6 7fbe 91d7 a4be 9f88 8c3d 88ba 5fbf
00000060: 9538 f9bd ca09 74be 99d2 d8bd 1c00 3fbe
00000070: 6d2f 66be aea7 38be 2091 45be 8c26 f3bd
-0.08004647 -0.175997 -0.12924618 -0.5631191 -0.08893161 -0.015328423 0.4195845 -0.02310677
-0.20250665 -0.1575171 -0.27315304 -0.17480156 -0.43749854 -0.18247207 0.0029143253 -0.3810534
-0.4216236 -0.029209021 -0.5802109 0.25963786 -0.24990107 -0.32195714 0.06861996 -0.87394
-0.12168995 -0.23831859 -0.10587043 -0.18652385 -0.22479029 -0.18032715 -0.19293642 -0.118725866

encoder.5.running_mean f4 [32]
00000000: aa52 cbbf 75a4 93c0 98bb 29c0 4fe5 2ebf
00000010: 2c84 c7bf 122b 4fc0 ba0e bcbf 6e39 2bbd
00000020: 8fae 87c0 f353 4fc0 330c 5a40 8499 b43d
00000030: 70b3 32bf b60d 42c0 f961 11c0 5ab3 09c0
00000040: e336 d9c0 9d50 1ac0 8f97 a73f 7a01 ccbf
00000050: 7ba9 2040 1318 aabf 6d15 e2c0 09a0 3841
00000060: 1126 2cc1 818c bbc0 9ccf 85c0 1da6 0fc0
00000070: c7ab 0cc0 ca59 1bc0 e6b4 fcc0 12bc d1bf
-1.5884602 -4.6138253 -2.6520748 -0.6831865 -1.5587211 -3.2370038 -1.4691994 -0.041802816
-4.2400584 -3.2394989 3.4069946 0.08818343 -0.6980505 -3.0320868 -2.2716048 -2.1515718
-6.78795 -2.4111702 1.3093127 -1.5937951 2.5103443 -1.3288597 -7.0651155 11.539071
-10.759294 -5.8609014 -4.181593 -2.2445138 -2.1979845 -2.4273553 -7.8970823 -1.638552

encoder.5.running_var f4 [32]
00000000: 61d4 2542 c9e1 6742 5fb8 8240 1dc2 af41
00000010: b168 fb41 1f06 b141 accf 6640 49ec a93f
00000020: b266 4242 ffa6 4c42 89f5 0542 8b01 7c41
00000030: 0ec0 aa3f 5d51 0442 e7d7 de41 2c31 1542
00000040: 5aab a442 fb8c af41 7c45 5341 d0f5 a541
00000050: 6f5a cb40 1434 5d42 95a5 ac42 3419 9742
00000060: 3bc9 5843 0975 c842 0b37 0c42 bb51 5c41
00000070: 8b8e 7d40 80bc 1241 4c5f 9a42 aae8 ed41
41.4574 57.970493 4.085006 21.969782 31.426119 22.127989 3.6064253 1.3275234
48.60029 51.163082 33.48978 15.750377 1.333986 33.079456 27.855421 37.29802
82.33467 21.943838 13.204464 20.745026 6.3547893 55.300858 86.3234 75.549225
216.78606 100.228584 35.053753 13.769954 3.9618251 9.1710205 77.18613 29.738605

encoder.8.weight f4 [64, 32, 3]
00000000: b1f9 f63e ed0a 02bf 2d95 9abf 45ca 8bbf
00000010: ed98 483d 5d8c 8ebd d607 07be 694e c0bd
00000020: 3029 153c 1191 633d fcef 903e b153 063f
00000030: cd25 083f 983c d43e bc88 233e f532 863f
00000040: 164c be3e d95f 3c3e f6cd d9bd 9dc2 a73e
00000050: 712d 843e 382b 2bbd a0ff d5bc 3059 643d
00000060: 79e9 0c3f af1a 24bf 6a89 09be aa42 6ebf
00000070: ab31 d3be b071 cfbe fd18 e8be 5551 fdbe
00000080: 66ac cbbd 3075 403e 83f6 acbb 8fa0 db3e
00000090: 1316 683e 40c1 233e 97d8 2e3e fd97 dc3e
000000a0: 28a2 5b3f 38a3 02be 7b07 cdbe a16b 40be
000000b0: a047 2bbe 4408 fb3d f41d c53d 1743 233c
000000c0: 9642 eb3e 8b1a 00bf fc44 debf db87 aabe
000000d0: 5557 b0be 618d 89be 0b80 12bf 3635 a5bf
000000e0: 8ce4 b0bf 6143 1cbe e534 073e 1ce3 323e
000000f0: 4b8e bfbe 2f70 41bf c78a 543e 76b7 89be
00000100: 5220 12bf 8433 1b3f 959b 8d3e bfac 963f
00000110: 1970 1bbf 02ae 983b b14c fcbd 0f59 efbe
00000120: 436d 163f f6dc d0be 8beb 83bf 0ac2 e93e
00000130: 6683 f2be a50e ecbe df83 7cbd db77 84be
00000140: b2f9 a93e 64cb f0be 4764 34bf 31c9 0abe
00000150: f1db 52be b984 99be b9f8 6cbe 2335 90be
00000160: 7be0 48bf 268f f53e f119 cf3e aed2 8e3e
00000170: 4e2c d4be c8fc 42be 1b18 633f 1cec 013e
00000180: 4668 13bd 56b2 f8be 301c 9dbe ded2 dc3e
00000190: 7373 41bd f955 fa3e 04e9 7dbe 4ba1 8cbd
000001a0: b617 3dbe a3fe 4b3e 66d2 40be 3413 f5bd
000001b0: a5c6 89bf 307a 3f3e 01bb 22bf aa44 2bbf
000001c0: 1836 553e 45b1 88bf f606 5b3c 77c7 af3d
000001d0: 1139 17be c6af 9bbd 7547 e23d a279 843d
000001e0: f11d 5c3f ae99 033f 6991 393e 51e2 013f
000001f0: 69c1 76bf 40a7 6bbf 3623 52be 11e2 b2be
00000200: 5907 4dbf 793b 2fbc 5fd0 f0bd 2047 4dbf
00000210: 7d81 efbe e715 a2bf 397d 11bf a8f7 9fbf
00000220: afec c93d 193c 6d3e 91d6 e83e d3dc 0dbf
00000230: e69d 91be 818a ffbe 52c5 c4bc dce8 f8bc
00000240: d7af 133f f757 0fbf 2836 93be 5cd6 33bc
00000250: 5294 423e 798b b2be 7724 12bf 4cd5 d1be
00000260: e400 9dbe cdd3 38be 25c0 34be 5490 e2bd
00000270: 5ed1 473e bc5d bbbf d5bb 2bbf d6fb a9be
00000280: a577 d6be 1754 a63e 42a2 323e ff01 8d3e
00000290: e4ca f0be 44dd 913d f791 bcbe 91bd d9be
000002a0: 68e5 353f 69a3 6d3e 8d14 dabe 9fd1 d43e
000002b0: 421e 9e3f 482d f93c 3736 c43e d591 313f
000002c0: 4384 02bf 4aa1 92bf 6d24 99be bd71 123f
000002d0: 95c1 413f c0b7 393f 59f5 a7be 1fc3 02bf
000002e0: 1cd1 34be 26c4 163f 6334 1f3f 078a 2c3e
000002f0: 0d30 54bf 53d8 00bf bb86 05bf 771e 7d3e
00000300: 63c3 11bf 2f2c 52be 3a66 16bf c82e 0fbf
00000310: 075a 1dbe 7607 b7be 74e9 ba3e 8ad7 e73d
00000320: d28b 433e 02a7 48bf 714b 483e 908a f13e
00000330: 300a 133f a37d eebe 9e4a 25be 7b42 22be
00000340: 34a0 1abe cf55 9dbf 4b2c c03d d934 02bd
00000350: 70ce efbe 6a14 f0bc 32ec df3c 7c18 97bc
00000360: 146c 40be 7a7b af3e fb7e 9f3e 06db 42bd
00000370: 84d4 e0be 155b 64be 01f3 9bbe 6800 1bbe
00000380: c549 72bf d84e 19be ac25 863c e9e3 babd
00000390: 17fc dfbe 8952 63be d01d efbd 6ffe 4a3e
000003a0: 4314 61bf 3f1b b9bf 3442 2a3e 8198 69be
000003b0: bc00 883d 746a 88be c910 0abf 8259 72bf
000003c0: 6282 08be 4941 c1be e5c5 5b3e f2c4 ccbe
000003d0: a92a e8bd 7e93 a63d 8c72 8bbf d957 a1be
000003e0: c197 13bf d0b3 0c3e e658 743e f9ad 71bf
000003f0: 1e61 04bf 10e4 7abe 4770 08bf 48ec c0bd
0.48237374 -0.5079792 -1.2076775 -1.0921103 0.048973966 -0.06960366 -0.13186583 -0.093899556
0.009104058 0.055558268 0.28308094 0.5247145 0.5318268 0.4145248 0.15970129 1.0484301
0.37167424 0.18395938 -0.10634987 0.32765666 0.2581592 -0.041789263 -0.026122868 0.05574912
0.5504375 -0.64103216 -0.13431326 -0.9307047 -0.4124883 -0.40516424 -0.45331565 -0.49476114
-0.09944992 0.18794703 -0.00527841 0.42895934 0.2266467 0.15991688 0.1707481 0.43084708
0.85794306 -0.12757576 -0.4004477 -0.18791057 -0.16726542 0.12257436 0.09624854 0.009964726
0.4594924 -0.500405 -1.7364802 -0.33306774 -0.3444163 -0.26865676 -0.5722663 -1.2906864
-1.3819747 -0.15260078 0.13203771 0.17469448 -0.37413248 -0.75561804 0.20756064 -0.26897782
-0.57080567 0.6062548 0.27657762 1.1771468 -0.6071792 0.004659415 -0.12319315 -0.46747634
0.5876047 -0.4079358 -1.0306257 0.45655853 -0.47365874 -0.46104923 -0.0616492 -0.25872692
0.33198315 -0.47030175 -0.7046551 -0.13553311 -0.20591713 -0.29984072 -0.23141755 -0.2816554
-0.7846753 0.47960776 0.4044948 0.2789511 -0.41440052 -0.19041741 0.8870866 0.12687725
-0.035988115 -0.4857356 -0.30685568 0.4312963 -0.04722924 0.48893717 -0.2479592 -0.06866702
-0.18466076 0.19921355 -0.1883026 -0.11966553 -1.0763747 0.18698955 -0.63566595 -0.6690165
0.20821416 -1.0679098 0.013368359 0.08582967 -0.14767863 -0.076018855 0.110487856 0.06468512
0.85983187 0.5140637 0.18121876 0.50735956 -0.9638887 -0.9205208 -0.20521244 -0.349381
-0.80089337 -0.010695332 -0.11758494 -0.80186653 -0.4677848 -1.2662934 -0.568317 -1.2497454
0.09859597 0.23167457 0.454762 -0.55415076 -0.2844078 -0.49910358 -0.02401987 -0.030384474
0.57690185 -0.559936 -0.28752255 -0.0109764 0.19001892 -0.34872034 -0.5708689 -0.40983045
-0.30664742 -0.18049546 -0.17651422 -0.11062685 0.19513461 -1.463798 -0.67083484 -0.33199948
-0.41888157 0.3248603 0.17444709 0.27540585 -0.47029793 0.07122281 -0.36830112 -0.4252744
0.7105317 0.23206867 -0.42593804 0.41566178 1.2352984 0.0304171 0.38322613 0.6936315
-0.50983065 -1.1455472 -0.29910603 0.572048 0.7568601 0.72546005 -0.32804373 -0.5107898
-0.17657894 0.5889305 0.6218931 0.16849528 -0.8288582 -0.50330085 -0.5215871 0.24718653
-0.5693876 -0.20524667 -0.58749735 -0.5593076 -0.15366374 -0.3574788 0.36506236 0.11320408
0.19096306 -0.78379834 0.19560029 0.47176027 0.5743742 -0.46580228 -0.16141745 -0.15845673
-0.15100175 -1.2291812 0.09383448 -0.03178868 -0.46837187 -0.02930661 0.027334306 -0.018444292
-0.18791229 0.34273893 0.31151566 -0.04757216 -0.43912137 -0.2230037 -0.30458835 -0.15136874
-0.94643813 -0.14971483 0.016375385 -0.09125502 -0.43747017 -0.22199453 -0.11675608 0.19823621
-0.8792154 -1.446144 0.16626817 -0.22812082 0.06640765 -0.26643717 -0.5393186 -0.9466783
-0.13330987 -0.3774512 0.2146221 -0.39994007 -0.11336262 0.08133601 -1.0894332 -0.31512335
-0.57653433 0.13740468 0.23862037 -0.94406086 -0.5171069 -0.24501061 -0.5329632 -0.09420067

encoder.8.bias f4 [64]
00000000: e073 6bbf aeee febe fbb8 3abf 6ff0 423f
00000010: 47c8 81be b6bc dabe 153d 913e 8aa2 9e3c
00000020: a16a 76be 730d 3fbf b55b dabe 1798 8fbf
00000030: 8869 1e3f f5d6 4ebe 9039 8a3e 0c45 303e
00000040: 43ed a9be e181 e93d 8943 273e 900b 833f
00000050: 07e1 493e f7ca 523f 80f8 f13e af3a 81be
00000060: 4feb 1bbf 91eb 7a3e d6de e3bb e2dd b5bd
00000070: ab37 1dbf 3e5f 283f b20d 14bf 9fea 7abe
00000080: efca 353e 2e29 5c3d 6328 f3be 76d3 e2be
00000090: 4f42 f1be f966 093e b5e3 8f3d c34b 583d
000000a0: 0437 743e edb6 873f f736 b0be afd0 4cbf
000000b0: e112 0bbf d65a 373f f844 0abf aca9 c13e
000000c0: 5234 833f d673 06bf 1175 1abf 4204 683e
000000d0: c0eb 1dbd 18ed 203f 0985 1abf 8125 d53e
000000e0: e561 36bc 047c 10bf 1fac 993e 81aa d13e
000000f0: 9d07 153f 557b ebbd 0a8e 103f 4047 293f
-0.91973686 -0.49791473 -0.7293851 0.7614812 -0.25348112 -0.427221 0.28366914 0.019364614
-0.24064113 -0.74629897 -0.42648092 -1.1218289 0.6187978 -0.20199187 0.26997042 0.1721384
-0.3318883 0.114017256 0.16334356 1.0237904 0.19714747 0.8234095 0.47259903 -0.25240085
-0.6090593 0.24503924 -0.0069540543 -0.088802114 -0.6141307 0.6577033 -0.578334 -0.24503563
0.17753194 0.05375021 -0.4749175 -0.44301957 -0.47120902 0.13418187 0.070258535 0.052806627
0.23849112 1.06027 -0.34416935 -0.80005926 -0.5432568 0.7162298 -0.5401149 0.37824762
1.0250342 -0.525205 -0.6033488 0.22657874 -0.038554907 0.62861776 -0.60359246 0.41630176
-0.011131738 -0.5643923 0.3001413 0.40950397 0.5821474 -0.11498133 0.56466734 0.66124344

encoder.9.weight f4 [64]
00000000: 75eb 483f 3822 ba3f 79d2 a53f 6512 583f
00000010: 55e5 633f a14d d23f 11fa 713f a367 393f
00000020: 1442 9f3f c923 de3f f8ee 4a3f dab9 a93f
00000030: 2db9 623f 4b2a 9f3f f6ca 1f3f a76c 5f3f
00000040: 62cb 833f 4695 8c3f 942b ec3f c9c5 7c3f
00000050: da2d d23f 7a30 353f 7cc3 593f 0e4f 913f
00000060: 31fd c43f 8ae5 ed3f cc39 c13f 4940 983f
00000070: 7c13 813f d368 bc3f b98a bf3f 3adb 853f
00000080: 24f4 b63f e089 8e3f b0c5 b83f 355f 533f
00000090: 0cc8 403f 0e22 a13f d5e2 443f 714d c93f
000000a0: 45b9 b53f f850 893f 08f3 bd3f 1e15 f43f
000000b0: d6a2 d83f 49a6 ae3f baf8 4d3f d969 2d3f
000000c0: 1e21 433f 07b2 d93e 54c0 a73f 6d7e 813f
000000d0: f5c8 843f 3683 853f 08e8 9e3f acd9 613f
000000e0: f14f 883f 1efa 753f 880b e53f bbb1 9d3f
000000f0: 6160 983f ba86 893f 626e 953f 319d 383f
0.7848428 1.4541693 1.2954856 0.8440307 0.8902181 1.642994 0.94522196 0.7242376
1.244204 1.7354671 0.7927089 1.3259842 0.88563806 1.2434782 0.6241907 0.87275165
1.0296443 1.0983055 1.8450799 0.98739296 1.6420243 0.70777094 0.8506391 1.135225
1.5389768 1.8585675 1.5095763 1.1894618 1.0084071 1.471949 1.496421 1.0457528
1.4293256 1.1135826 1.443533 0.8256715 0.7530525 1.2588518 0.7690862 1.5726758
1.4197165 1.0727835 1.4839792 1.9068944 1.6924694 1.3644496 0.8045765 0.67739636
0.7622241 0.42518637 1.3105569 1.0116707 1.0373827 1.0430667 1.241456 0.88222766
1.0649396 0.96084774 1.7894144 1.2319864 1.1904413 1.074424 1.1674311 0.72114855

encoder.9.bias f4 [64]
00000000: a155 05be 8d00 08bf 886e febe 9075 d6be
00000010: 9cc0 c8be b6a3 20bf ae86 9fbe 97fc 87be
00000020: a316 1bbf 3da4 90be 2dc6 31be 8630 e8be
00000030: f8ad d3be 8fb4 82be 1b8f 9cbe db77 813c
00000040: 7e3e 22be d98d 68be 3733 9fbe 3de5 d7be
00000050: 3555 3abf e36b 54be 77d4 b6be 4cac 06bf
00000060: c8d6 dcbe 1f1f 1abf d384 19bf b12e 95be
00000070: 8e8f 6cbe a153 0abf d9c6 19bf f988 82be
00000080: add4 24bf 3bb3 bcbe 8015 ddbe 547e bdbe
00000090: 44a6 0abe 152b c7be 164c 9fbd a14c f6be
000000a0: 0437 d8be 5e13 96be a1d5 cabe 18b1 bfbe
000000b0: 4724 03bf eece e2be 2658 84be 60e7 0bbe
000000c0: bdfe babe 27e5 9fbd 3108 91be ef6e c9be
000000d0: 6fb1 48be 5873 b2be 3cb7 d9be 59a8 babe
000000e0: df71 cbbe bfbc 92be d14f bcbe 3297 16bf
000000f0: 83bc 14bf 13ab 59be 990a aebe 3ca0 993e
-0.13020946 -0.5312584 -0.49693704 -0.41886568 -0.3920945 -0.62749803 -0.3115744 -0.26559898
-0.60581416 -0.28250304 -0.17360754 -0.4534952 -0.41343665 -0.2552838 -0.3057793 0.015804222
-0.15844151 -0.2271036 -0.3109376 -0.42167082 -0.72786266 -0.2074428 -0.35708973 -0.52606654
-0.43132615 -0.6020374 -0.599683 -0.29137185 -0.23101637 -0.5403386 -0.6006904 -0.25495127
-0.6438702 -0.36855492 -0.43180466 -0.37010443 -0.13539988 -0.38900056 -0.07778184 -0.48105338
-0.42229474 -0.2931165 -0.3961611 -0.374398 -0.5122723 -0.442985 -0.25848502 -0.13662481
-0.36522475 -0.07807379 -0.28326562 -0.39342448 -0.19598936 -0.34853625 -0.4252261 -0.36456564
-0.39735314 -0.28659627 -0.36779645 -0.58824456 -0.58100146 -0.21256666 -0.3399246 0.30005062

encoder.9.running_mean f4 [64]
00000000: 0497 5ac0 06c2 3fc0 3155 01c1 9315 883f
00000010: 10b3 9ac0 db82 b3c0 30f6 9ebf 19bf 02bf
00000020: eac8 a3bf 7e5a 0abf 6b7f 4ac0 71c6 73c0
00000030: de12 123e de17 31c0 eb11 49c0 004a 90c0
00000040: fabb a1c0 ec23 2dc0 5a5f a9c0 df54 d3bf
00000050: 4324 53c0 066e 61c0 a03b bd3d f0e7 a9c0
00000060: b502 94c0 86d6 4ac0 781a c1c0 5c19 75c0
00000070: de67 e7c0 31df 18c0 3412 4dc0 facf a7c0
00000080: 5836 1bc0 062f 82c0 aa2a 15c0 916a 5bc0
00000090: 169e aec0 0f52 00c0 c0ec 3ec0 afe1 22c0
000000a0: e34a 49c0 884f d8bf 5586 b0c0 98db e5c0
000000b0: 2f83 3fc0 81c6 22c0 ce22 1dc0 6f7d 0ac0
000000c0: 9610 64bf f2ab 1cc0 6edd c0c0 e96f 2ebf
000000d0: 6b3e 2040 3752 cdbf 25cb 6cc0 0c7a 28bf
000000e0: 1628 02c0 086b aabf 40a2 a1c0 c8ab aec0
000000f0: 405f 2040 1252 88c0 585b 83c0 9895 d9bf
-3.4154673 -2.9962173 -8.083299 1.0631584 -4.834358 -5.6097236 -1.241888 -0.5107284
-1.2795689 -0.5404433 -3.164027 -3.808987 0.1426501 -2.7670817 -3.1417186 -4.509033
-5.0541964 -2.7053175 -5.2928896 -1.6510276 -3.2990882 -3.5223403 0.09239888 -5.3095627
-4.6253304 -3.1693435 -6.034481 -3.8296728 -7.231429 -2.3886225 -3.204236 -5.244138
-2.4251919 -4.06824 -2.330729 -3.4283793 -5.4567976 -2.0050085 -2.9832 -2.5450246
-3.1451957 -1.6899271 -5.516398 -7.183056 -2.9923818 -2.5433657 -2.4552493 -2.1639059
-0.8908781 -2.4479947 -6.02703 -0.6813951 2.5038097 -1.6040715 -3.699899 -0.6581123
-2.0336967 -1.3313913 -5.051056 -5.4584694 2.5058136 -4.2600183 -4.1049004 -1.6998777

encoder.9.running_var f4 [64]
00000000: 400e f540 2d22 a041 872b 7c41 7117 d940
00000010: a083 0f41 fa34 bb41 8d4f 0241 2ce5 aa40
00000020: 81b5 4541 6a19 0342 e85a 3241 ffb7 5141
00000030: c39f fa40 57db 7e41 b5ca b640 1158 8341
00000040: 69de 1f41 5b04 5d41 58af 2642 8578 e140
00000050: 4bcf af41 6de0 d940 41db 0f41 6c5b 2141
00000060: d842 a041 88db fb41 1183 b341 f1b7 8b41
00000070: 70d2 4b41 20af a541 2cff e841 ee4d 5741
00000080: 06f5 5341 6cec 8f41 e8c8 b041 0701 c940
00000090: a71a 0f41 3f6f 8741 80df 8841 eb50 a341
000000a0: 025c b541 0b87 5641 ddc6 ab41 0be4 2f42
000000b0: bddc ff41 5cec 9241 f8d7 1b41 b862 0d41
000000c0: 801f 0641 0494 8440 f658 a041 0a96 6641
000000d0: 0d7b 3341 571f 5041 2804 9441 0fcc 0c41
000000e0: edd3 2441 552a 3e41 1820 3742 0794 6d41
000000f0: 1743 8441 0ff7 6541 20b7 6741 ac59 9141
7.6579895 20.016687 15.760627 6.7841115 8.969635 23.400867 8.144422 5.340475
12.3568125 32.77482 11.147194 13.107421 7.832002 15.92855 5.7122445 16.418001
9.991799 13.813563 41.671234 7.045962 21.976217 6.8086457 8.991029 10.08482
20.032639 31.482193 22.438997 17.464815 12.738876 20.71051 29.124596 13.456526
13.24732 17.99044 22.098099 6.2813754 8.944007 16.92932 17.10913 20.41451
22.669926 13.407969 21.472101 43.9727 31.982782 18.36541 9.740227 8.836601
8.38269 4.1430683 20.043438 14.411631 11.217542 13.007651 18.50203 8.799819
10.30174 11.885335 45.78134 14.8486395 16.532759 14.372817 14.482208 18.168785

encoder.12.weight f4 [128, 64, 3]
00000000: bfe4 49be cb4c 923e bd7f d7be 268f f43d
00000010: f988 aa3e 292a 0b3d e388 b4bf fca2 773f
00000020: a6ad 31bf aa27 edbe edf6 8e3e c95c 22bf
00000030: 1204 683f 7304 09bf 5d58 8dbd ae8d f23e
00000040: f912 04bf 7b7a 8dbf 95eb 353d 6cac 053e
00000050: 2e5d 043d d7e5 d13d f4ba 81bd bb5c 7a3e
00000060: 8b27 07bf b1dc 123f c7f8 a8be 2a91 8ebe
00000070: 7c4f 4f3d cec6 723e 498b 26bf 62a6 0f3f
00000080: 28bd 2a3f 3e68 0f3e 9bf5 0e3f baf7 53bf
00000090: 8f77 b4be 41a6 5f3e 2eac 8f3c 8bfd 48be
000000a0: 28c9 133f dcc1 1c3f e94c 17bf f72b ce3c
000000b0: 9d04 613f 2d52 6e3c 70e9 343f c915 6f3f
000000c0: c40c a1be f997 083f 12bf c53e de47 323e
000000d0: 0178 2abf ce9c 243f d2d1 cfbc 1842 ae3e
000000e0: 3bf0 26be 90cd eabe be5b 30bf fa21 b13e
000000f0: a141 0e3d e6d0 ef3d 131c 8abe 7b95 bcbe
00000100: 242a 7ebe f727 023f e959 283d 2153 3d3f
00000110: 5ba8 ac3e dca2 453e e405 3c3f 8167 efbd
00000120: c2ce 163f 7122 fc3b e282 5abf b118 e53d
00000130: f187 c8bf 7fa7 bc3e f933 6ebd 0cb6 dc3d
00000140: 00c8 ec3e 62a6 4a3f f941 4e3e efd5 f73d
00000150: f9a4 053e 2deb 9cbe 1a84 1d3f 9d13 0c3f
00000160: 87e4 b9be 90e1 6e3d b82f e33e 95df 98be
00000170: 36cd 1bbe 76e7 073f 41d0 b4be 1449 28be
00000180: 51a2 8cbd 720e 7ebf 7c0f 753e 624b 2e3f
00000190: 195e 2bbf b538 37bf ac2d 243f dc79 a9bd
000001a0: 97d6 65be 427b 8fbd b4a8 cebe 87c8 6abe
000001b0: 3379 b03d 3d0f a33e 0ce3 8b3d 3f1b 4abf
000001c0: 80f3 b9be f0a5 c03e 2f63 5abe 9436 0dbe
000001d0: 4ff6 1abe 879f 233f 85a7 9c3b cde6 f93e
000001e0: 6a13 fbbe 860e c33f d768 82bf 359e b9bc
000001f0: 269e 3cbe 573f 8cbe f265 fabc 829d 333e
00000200: 9522 0c3f 8546 0fbf 2981 e0be 5f85 20bf
00000210: 874e c03f 6578 8c3e bb83 cbbe efdd 9cbd
00000220: d496 f63c a7a1 91bd 68eb b33d f40a b43e
00000230: 6523 fb3e 365a 2f3e 5556 de3d abe0 d73e
00000240: 6625 fa3c c04b a93e 29eb 26bc da4e 353e
00000250: 15b2 3f3c 763b fb3e e0ba 09bd 2050 babe
00000260: 10b9 a83e c2a1 64bf e755 40be b906 99be
00000270: 6584 7cbd e4a5 bdbd 31bb 40be 4d68 593c
00000280: 26ff fc3c b351 133f 09e6 a5be 7621 28bf
00000290: 2bdf 12bf 5599 0fbf 4dde a5bf 1cae 343f
000002a0: 9cf4 3abf 524e 4abf 9171 d2be 110a eabe
000002b0: 3f52 88bf 5fce c8be c1a3 d9be 17a4 e83e
000002c0: 8992 0cbf 41e0 b93e 728f 8abf a957 2e3f
000002d0: 848e bb3c 531b 0fbf 27dd ccbc 70a5 923f
000002e0: 7459 4ebf 2cd3 473f 29a1 a4bf 5279 2c3f
000002f0: cc96 28bf e056 113f 081e cbbc 4f1d 39be
00000300: 266b 2fbf b9b1 84bf 0606 8d3e 78f4 483f
00000310: 836b 61bf dba6 113d ae3d 843f 8177 0b3f
00000320: 1bfd 8d3e 0240 ac3e 11c2 80be 7cf4 263c
00000330: 8ebd 823e f4d2 edbe d33a 303f 3a4f 68be
00000340: b6d3 a5bf 9a15 08bf 1ed2 24be 2f72 073e
00000350: 9964 8dbe cbdf fdbf 00c3 cbbe 18d6 6b3e
00000360: 8327 e7bf cbea 24bf a135 e9bd 9c62 5a3f
00000370: 8f5c 17bf 4bd6 313e f654 d43d f917 813d
00000380: 6971 95be e503 02bf 0da0 0e3e defa 1f3e
00000390: 9b2d c73e 04b0 2d3e 2263 7b3d 0a05 82bd
000003a0: 8065 1cbf 5ba2 913e ec0b a0bd 572a 19be
000003b0: 6f91 f73e 3e61 7b3f 382e 3abe 897e 38bf
000003c0: c722 17bb d85c aa3e 0e76 07bf 52e0 89be
000003d0: 624b 2ebf 73c0 783f 041c a5be 146e 583e
000003e0: bc76 7b3f 9f5e 9fbf 8b9b 92bf 1cd8 70bf
000003f0: d4f9 d5be f8aa 36bf 3e39 fdbb 9f83 8d3f
-0.19716166 0.28574213 -0.42089644 0.11941366 0.33307627 0.033975754 -1.4104275 0.9673307
-0.6940559 -0.46319324 0.27922764 -0.6342283 0.9063121 -0.53522414 -0.069016196 0.47373718
-0.5159145 -1.1053003 0.04441412 0.13054055 0.032315426 0.102489166 -0.063344866 0.24449436
-0.5279471 0.57368 -0.33002302 -0.27845126 0.05061291 0.2370865 -0.6505628 0.56113255
0.6669488 0.14004609 0.55843514 -0.82799876 -0.35247466 0.21840765 0.017538156 -0.19627969
0.57728815 0.61233306 -0.5910173 0.025167448 0.87897664 0.014545959 0.706687 0.93392617
-0.31455052 0.5335689 0.38622338 0.17410228 -0.6658936 0.64301765 -0.025368605 0.340348
-0.16302578 -0.45859957 -0.6888999 0.34596235 0.034730557 0.11709766 -0.26974544 -0.36832795
-0.24820763 0.5084223 0.04110137 0.7395497 0.33722195 0.19300407 0.7344649 -0.11689664
0.5890924 0.0076945354 -0.8535596 0.1118635 -1.5666486 0.3684654 -0.058155034 0.1077691
0.46246338 0.7916013 0.20142354 0.121013515 0.13051213 -0.30648175 0.61529696 0.5471743
-0.36307165 0.058320582 0.44372344 -0.2985808 -0.15215 0.53087556 -0.35315135 -0.16434127
-0.06866897 -0.9924079 0.23931688 0.68083775 -0.66940457 -0.71570903 0.6413219 -0.08275196
-0.22445141 -0.070059314 -0.40363085 -0.22928058 0.08616867 0.31847563 0.06830415 -0.78947824
-0.36318588 0.376266 -0.21326898 -0.13790351 -0.15133022 0.63915294 0.004780712 0.488089
-0.4903825 1.5238807 -1.0188245 -0.022658447 -0.18419704 -0.27392074 -0.03056619 0.17540553
0.5474027 -0.5596698 -0.4384854 -0.6270351 1.5023965 0.27435604 -0.3974894 -0.07659518
0.030101217 -0.07110911 0.087851346 0.35164607 0.4905044 0.17124256 0.1085631 0.42163596
0.030535411 0.33065605 -0.0101879025 0.1770586 0.011700173 0.49068803 -0.033625484 -0.36389256
0.3295369 -0.8930932 -0.18782769 -0.2988794 -0.0616497 -0.09260157 -0.18821408 0.013269496
0.030883383 0.5754654 -0.32402065 -0.6567606 -0.5737178 -0.5609334 -1.2958466 0.7057817
-0.73029494 -0.7902576 -0.4110227 -0.45710805 -1.06501 -0.3921995 -0.42507747 0.4543769
-0.54911095 0.36303905 -1.0825026 0.6810251 0.022895105 -0.5590107 -0.025007797 1.1456738
-0.80605245 0.780566 -1.2861682 0.6737262 -0.658551 0.56773186 -0.024794593 -0.18077587
-0.6852287 -1.0366737 0.27543658 0.7849803 -0.88054675 0.035559516 1.0331323 0.54479223
0.27732167 0.33642584 -0.2514806 0.010190126 0.25535244 -0.46450007 0.6883976 -0.22686473
-1.2955234 -0.5315796 -0.16095778 0.13227151 -0.27615812 -1.9833921 -0.3979721 0.23030889
-1.8058933 -0.64420766 -0.11387182 0.85306716 -0.5912561 0.17366903 0.103677675 0.063034005
-0.29188088 -0.5078719 0.13928242 0.15623042 0.38901982 0.16961676 0.061373837 -0.063486174
-0.61092377 0.2844418 -0.07814774 -0.14957558 0.48353145 0.98195255 -0.18181694 -0.7206808
-0.00230615 0.3327396 -0.5291451 -0.26928955 -0.68083775 0.97168654 -0.32247937 0.21135741
0.9822805 -1.2450751 -1.1453718 -0.94079757 -0.41792166 -0.7135463 -0.007727771 1.1055793

encoder.12.bias f4 [128]
00000000: 9f96 5fbe 7bcb 97be 72a0 87be 7d79 d63e
00000010: a7be c23d d869 cfbe ef5f 303f 7c6d a43f
00000020: 4f50 133f 3387 2dbf 9d24 173e 79b0 143f
00000030: 9feb 493e 418a f4bd 7c1a 203e 095d 853e
00000040: c46f 9a3e 964a 7f3f 6f1a 573d 7514 c7be
00000050: 29cb 0b3e 08f2 3fbf 294c 18bd 4179 0a3e
00000060: e689 2abf d915 f6bc d59b 8dbe b754 debd
00000070: 0589 8dbe 76b0 2bbf 49de aa3d 32bb babd
00000080: 8dae 943e 4e5e a8bb d748 91bd b5a5 033f
00000090: 15c9 7a3d a561 f1be ba01 353e a2fd fdbd
000000a0: 9c9a 203e a3b5 833e b91a 6c3f 1a14 f63e
000000b0: 23d6 89bf c898 8bbe 457e a9be a5ca b1be
000000c0: cf4f 46be 5d77 183f 67d7 c8bd b0f0 37be
000000d0: 9cfc 66bd 22b3 503e 6a35 2a3f e3c0 2f3e
000000e0: 5658 cbbd c483 213f bf86 c0be dff1 94bf
000000f0: c55a cfbc 3ad2 2c3e f2fd 7e3f fe59 7a3d
00000100: 57a9 343f bbe3 52bf abf3 0a3f 53d2 0f3f
00000110: 9400 2c3f 5693 263f e5fa 053f 8580 3abf
00000120: 5f5b 873e b647 f53e 84b1 03bf 96ba 773f
00000130: 9d0f 5dbe 3f20 95be ebdc 8d3e 803d b53e
00000140: 3319 223f 7c15 133f 9ae4 9abd f38c 29bd
00000150: ed95 443e 1cf2 29be 2472 fd3e 42ab ae3e
00000160: 20da 0ebf 16a4 d53d a400 823c 2011 c53e
00000170: 39c6 94be 9cd8 28bd 082f 63bf 60fd 31be
00000180: 2e23 6abf 83ed d83e a267 523f dee4 153f
00000190: 5d6f b3be e3c9 5f3e 7803 7bbd 7156 4c3d
000001a0: 66dd 593f 70fa 843f 806a 38b9 6f25 6f3f
000001b0: 6231 e93d f1f6 ad3b 029e bfbd 4896 18bc
000001c0: 6d62 ba3d 6aa4 f5bc a6c3 6e3d 9593 003e
000001d0: 1d27 cf3e 0358 9d3e 304d 423e af79 a53f
000001e0: 09ea 02bd d6fd 1cbf ee0a f9be 219f 10be
000001f0: bfe1 ec3e c6a8 563c ef5a 523e 29d7 013f
-0.21834801 -0.2964743 -0.26489598 0.41889563 0.0950902 -0.4051044 0.68896383 1.2845912
0.57544416 -0.6778442 0.1476006 0.58081776 0.19718789 -0.11940432 0.15635103 0.26047543
0.30163395 0.99723184 0.052515443 -0.38882795 0.13651718 -0.74978685 -0.037182007 0.13522817
-0.66616666 -0.030039715 -0.27657953 -0.10856002 -0.276436 -0.67066133 0.08343179 -0.09117736
0.29039422 -0.005138195 -0.07093971 0.51424724 0.061226923 -0.4714481 0.1767644 -0.12401892
0.15683979 0.25724515 0.92228276 0.4806221 -1.0768474 -0.27265 -0.33104149 -0.34724918
-0.19366382 0.59557134 -0.0980671 -0.17962909 -0.05639325 0.20380834 0.66487753 0.17163424
-0.09928958 0.63091683 -0.37602803 -1.1636313 -0.025311837 0.1687707 0.9960624 0.06112098
0.7057089 -0.8237874 0.5427806 0.56180304 0.6718838 0.65068567 0.5233596 -0.72852355
0.26436898 0.47906274 -0.5144274 0.9676908 -0.21587987 -0.29126164 0.2770761 0.35398483
0.633197 0.5745466 -0.075631335 -0.041394185 0.19197817 -0.16596264 0.49501145 0.34115034
-0.5580158 0.104316875 0.015869446 0.38489628 -0.29057482 -0.0412222 -0.8874364 -0.17381811
-0.9145993 0.42368707 0.8218938 0.5855235 -0.350459 0.21854357 -0.061282605 0.049887124
0.8510345 1.0388927 -0.00017587282 0.93416494 0.11386372 0.0053089787 -0.093563095 -0.009313174
0.091008045 -0.029985625 0.058292054 0.12556298 0.4045953 0.3073121 0.18974757 1.292776
-0.031961475 -0.6132482 -0.4864115 -0.14123203 0.4626598 0.013101762 0.20542501 0.50718933

encoder.13.weight f4 [128]
00000000: 1d50 823f edfe 813f 0d62 713f 4b05 723f
00000010: 3a08 be3f b0da c03f a382 683f 9087 a43f
00000020: 8218 7f3f f9c3 833f 079f a03f c216 7a3f
00000030: a027 ac3f 165a 853f 2c12 953f 8446 583f
00000040: 48f1 703f 0337 813f ac60 753f 2bac b33f
00000050: 7f74 873f 2138 843f 70b5 c93f e376 9c3f
00000060: c03f 693f f63c 563f 5352 803f 498c b43f
00000070: d744 6a3f ec65 7e3f 2161 6a3f 2cf1 7a3f
00000080: b808 bd3f a60e 843f 164b 793f 2f85 843f
00000090: a5e3 743f f278 823f f6c8 6d3f 8919 6f3f
000000a0: b4df 5b3f 3978 583f f323 873f cda4 903f
000000b0: b68b 753f 03ef ac3f 3de9 863f bdae 383f
000000c0: a64e 843f e331 7e3f 7ee0 8c3f 6770 833f
000000d0: f425 603f 63f9 833f a68d 503f a2cf b43f
000000e0: 9d1f 7a3f a280 803f 088b 433f dda3 843f
000000f0: f908 5a3f 12d5 843f 6fc5 843f e278 873f
00000100: b92d 8e3f 7a26 6b3f 6ad1 9d3f d5d0 803f
00000110: 70cc 833f 547d 4b3f e44e 893f ddde c13f
00000120: c651 7b3f d6fc c43f 1812 803f 3d51 753f
00000130: e479 6c3f 23ee a83f b24d 863f 153b 993f
00000140: 6dff 8a3f 369b 7f3f 3dea 873f e7f2 4c3f
00000150: b828 713f 3945 8a3f a1e0 823f 80c8 743f
00000160: e06c 6d3f 15a4 4e3f 7b07 823f a5d2 a73f
00000170: 0cfb 863f 194b 743f c782 753f be89 7c3f
00000180: 0c18 c93f 0267 783f 7408 323f e781 6c3f
00000190: b2c5 b23f 0050 783f 8527 bb3f 1ac3 763f
000001a0: d4bf 513f e916 c73f 35af ad3f 7600 6d3f
000001b0: 9ee8 743f 28d0 9e3f d7a5 9a3f 96bd 993f
000001c0: 6898 863f ced3 993f afa1 863f cfa8 863f
000001d0: b1b8 9c3f 95e0 483f 5215 b13f b036 833f
000001e0: 0d23 863f 5a96 763f 885c 7b3f 8bd9 9b3f
000001f0: 6a82 a33f da18 a23f 9682 c53f 7287 813f
1.0180699 1.0155922 0.9429024 0.94539326 1.484626 1.5066738 0.90824336 1.285387
0.9964677 1.0294181 1.2548531 0.97690976 1.3449593 1.0418117 1.1646171 0.844826
0.94118166 1.0094913 0.95850635 1.4036916 1.0582427 1.0329629 1.5758495 1.2223781
0.911129 0.8368677 1.0025123 1.4105312 0.9151129 0.9937427 0.91554457 0.9802425
1.4768286 1.031697 0.973802 1.0353144 0.9565986 1.019316 0.9288477 0.9339834
0.8588822 0.84558445 1.0557846 1.1300293 0.95916307 1.351044 1.0539929 0.7214163
1.0336502 0.9929487 1.100601 1.0268677 0.8755791 1.0310482 0.8146614 1.4125865
0.9770449 1.0039256 0.7638402 1.0362507 0.8516994 1.0377524 1.0372752 1.0583766
1.1107703 0.91855586 1.2329533 1.006373 1.0296764 0.7948811 1.07272 1.5146137
0.9817165 1.538966 1.0005522 0.95827085 0.9237349 1.3197674 1.0492461 1.1971155
1.08592 0.9984621 1.0618359 0.8005814 0.94202757 1.0802375 1.0224801 0.9561844
0.92744255 0.8071912 1.0158533 1.3111159 1.0545363 0.9542709 0.95902675 0.9864768
1.5710464 0.9703218 0.6954415 0.92385715 1.3966582 0.9699707 1.4621435 0.9639145
0.8193333 1.5553867 1.3569094 0.9257883 0.95667446 1.2407274 1.208186 1.2010982
1.0515261 1.2017763 1.0518092 1.0520266 1.2243863 0.78467685 1.3834631 1.0251064
1.0479447 0.9632317 0.98188066 1.2175764 1.2774174 1.2663834 1.5430477 1.011946

encoder.13.bias f4 [128]
00000000: 96b4 03bf 21f7 16bf 1408 1dbf 0f5f 22bf
00000010: a6c4 23bd ad2e 73bd 1fc6 5cbf 74c4 2cbe
00000020: fade 41bf 15f8 06bf 7d42 52bf f83b 08bf
00000030: f6e9 1abf 2d32 47bf bb76 9abf 5e97 6fbf
00000040: d4c0 2abf 031c 1cbf 8c6a 66bf 0a59 2fbe
00000050: 91c6 55bf 0a8c 28bf f00a d1be de1f 5ebf
00000060: cfc8 19bf 3713 26bf 1d57 fbbe 1f53 26bf
00000070: 098c 34bf cf4f 04bf 4ca7 16bf 0692 edbe
00000080: 0643 27bf e977 eabe 43bd ebbe 8ed0 3ebf
00000090: f2a4 12bf 984f 07bf 8039 44bf 0091 1bbf
000000a0: 9dcb 2abf c585 43bf 7945 02bf 796c 61bf
000000b0: 5fde 50bf 0e54 67be 8706 eebe 735c 55bf
000000c0: bfe0 0bbf 2edd 10bf 0ab0 15bf 0694 3dbf
000000d0: 9b66 4ebf 627f 34bf 8b8e 23bf cdcc 613e
000000e0: 586f f8be af11 f9be e8e5 44bf 2fdb 49bf
000000f0: 4ec9 6ebf 4a9d 0dbf b43e 34bf 8c82 21bf
00000100: f1ac 65bf ad52 10bf befd 503e f1ca f2be
00000110: 2a9c 16bf fa32 80bf 5dcf 14bf 751f 34bf
00000120: 0192 f7be c740 03bf 6e92 62bf 18ab 1bbf
00000130: 380b 27bf ccc3 b7be 314e 17bf 28ed 35bf
00000140: d144 2fbf 1d15 fcbe 81f7 01bf 00ea 69bf
00000150: 7daf 0dbf f5ba 7dbf 8f3e 25bf 1938 3abf
00000160: fea5 27bf ce00 4ebf e1b3 eebe b68b 2cbf
00000170: 0588 29bf cbcc 41bf 9884 48bf 6c1b 64bf
00000180: 3e0c 10bf 05d9 4fbf d27e c3bf 0c84 42bf
00000190: db93 f3be 0833 91bf e09c 72bf 2990 ebbe
000001a0: 759a 78bf 20d4 36bf c192 8ebf 5ebc 32bf
000001b0: 9676 e7be e4d8 07bf af2f 0cbf e49a 9ebf
000001c0: 15ec 0ebf 311d 143e 068f 1cbf 9c37 22bf
000001d0: 4f3d 8dbf 3c65 8abf 9d3e 8cbf 817a 3ebf
000001e0: 20d2 08bf 4bd5 26bf e08a 03bf cd52 cb3d
000001f0: dd4f fbbd 8174 48be 70bd 81be 2053 07bf
-0.5144743 -0.5897084 -0.6134045 -0.634263 -0.03998246 -0.059370685 -0.8623981 -0.16871816
-0.7573086 -0.52722293 -0.82132703 -0.53216505 -0.60513246 -0.7781094 -1.2067484 -0.93590343
-0.6670048 -0.6098024 -0.9000633 -0.1712381 -0.83506113 -0.6583868 -0.40828657 -0.86767375
-0.60072035 -0.6487307 -0.490899 -0.6497058 -0.70526177 -0.5168428 -0.58849025 -0.4640047
-0.65336645 -0.4579461 -0.46042833 -0.7453698 -0.57282937 -0.52855825 -0.7665024 -0.6076813
-0.6671694 -0.7637599 -0.50887257 -0.8805614 -0.8158931 -0.22590658 -0.46489355 -0.8334419
-0.5463981 -0.56587493 -0.5847174 -0.7405399 -0.80625314 -0.7050687 -0.6388938 0.22050782
-0.4852245 -0.48646304 -0.7691331 -0.7885007 -0.93275917 -0.5531813 -0.7040818 -0.63089824
-0.8971701 -0.56376153 0.20409295 -0.47420457 -0.5883204 -1.0015557 -0.5812891 -0.703605
-0.4835358 -0.5127072 -0.88504684 -0.60807943 -0.65251493 -0.3589157 -0.59103686 -0.71064997
-0.6846438 -0.49234858 -0.50768286 -0.9137268 -0.553459 -0.991134 -0.6454858 -0.7274185
-0.6548766 -0.8046998 -0.46621612 -0.6740068 -0.66223174 -0.75703114 -0.7832732 -0.8910434
-0.5626868 -0.8119052 -1.5273077 -0.7598274 -0.47573742 -1.1343699 -0.9477062 -0.46008423
-0.9711068 -0.7141743 -1.1138536 -0.69818676 -0.4520766 -0.53065324 -0.5476026 -1.2391019
-0.5582898 0.1446426 -0.61155736 -0.63366103 -1.1034335 -1.0812144 -1.0956608 -0.74405676
-0.53445625 -0.6516921 -0.5138378 0.09927902 -0.12271092 -0.19575693 -0.25339842 -0.52861214

encoder.13.running_mean f4 [128]
00000000: c7d3 abbe aa39 b1bf 4d93 7b3f 3b5c e03e
00000010: de33 663f faca 92bf 2d0a 2440 72ff 3140
00000020: bf85 d33e be6a 7bc0 440e 81bf bc90 ebbe
00000030: 482a 413f af84 0b3f 3f40 8ebe 2962 9abf
00000040: be4e c23e 5c57 f13e 2361 0abf 84a6 e0bf
00000050: e546 3ebf 57a4 11c0 49e6 7abf f1af a63e
00000060: 7aaf 923e b0f7 11bf 12b1 82bf 58de 523f
00000070: 1cdf 183f d49f 25c0 8be9 85bf a043 c4be
00000080: bf7b 033f 7c6f f5bf 8235 b73e d126 d0bd
00000090: 7a2c 17c0 70bd 97bf e249 9abe c7f1 8d3f
000000a0: 8b9c f5be 8ff6 80be 0d2a 3abf 4e67 82be
000000b0: 270c f4bf 0a13 edbe f640 8ebf dc96 8abf
000000c0: d332 9d3e 1925 0d40 0a90 0b3f 14f9 1cbf
000000d0: 2b20 9e3f 648d 82bf ad54 4b3f 45a8 a23f
000000e0: e594 edbd 01a3 77bf e1fd 503f e6f0 3ac0
000000f0: 5ada 373e d3c7 ccbf aadd 9bbf a771 8ebc
00000100: 2842 40bf 7a2f c2bf dab8 b73e f09f 113f
00000110: 00aa 12bf d59a f33f 439e 93be eb8d 393f
00000120: 062c 9ebf fc65 b33e 0643 793d 4485 eb3f
00000130: 5821 91bf 6c60 8cbf 38d1 ef3e 1742 093f
00000140: 2803 163f e77f d7bf a7f3 2ec0 aa06 9f3f
00000150: 47cf 8cbf 1e73 26bf 6505 55bf 1018 903d
00000160: f94e b1bf 67e1 99bf a8c9 14bf 178e c53f
00000170: a6b0 aabd ef3b cb3e 85fa 8ebe 961e dfbf
00000180: 3e68 24bf 91ec 943f b6b5 2cbf 46e4 713f
00000190: d19f c8be 3acf 4b3f c4a8 01c0 09e1 a8bf
000001a0: f2f0 c23e 48bc 833f 915a f13f f0e8 17be
000001b0: b328 9fbf e2ab 83be 535f 31bf 75c1 02bf
000001c0: e9f4 a7bf b878 933f 333a e93f da1c aa3e
000001d0: ef2a c03e 2f06 2f3f d981 d0bd 8e3c d43f
000001e0: fcf3 29c0 e1e0 d3be 826d 56c0 cede 603f
000001f0: 5384 12c0 e391 5e3e 5f60 d8be 192e 3abf
-0.3356001 -1.3845723 0.9827164 0.43820366 0.89922893 -1.1468194 2.563121 2.7812161
0.41312978 -3.92839 -1.0082479 -0.4600886 0.7545514 0.54499334 -0.2778339 -1.2061206
0.379507 0.47136962 -0.5405447 -1.7550817 -0.74326926 -2.2756555 -0.9800764 0.32556108
0.28649503 -0.57018566 -1.0210288 0.8237052 0.5971544 -2.5878801 -1.0461897 -0.38332844
0.51360697 -1.9174647 0.3578301 -0.10163654 -2.3620896 -1.1854687 -0.30134493 1.108941
-0.47970995 -0.2518811 -0.72720414 -0.2546944 -1.9066209 -0.46303588 -1.1113575 -1.0827289
0.30702838 2.2053893 0.5451666 -0.61317563 1.2353567 -1.0199399 0.7942608 1.2707602
-0.11600665 -0.967331 0.8163739 -2.9209533 0.17954388 -1.5998482 -1.2177022 -0.017388178
-0.75100946 -1.5170739 0.35883218 0.5688467 -0.5729065 1.9031626 -0.28831682 0.72482175
-1.2357185 0.35038745 0.060854934 1.8400044 -1.1338301 -1.0966926 0.4683931 0.5361647
0.58598566 -1.6835908 -2.7336214 1.2423909 -1.1000756 -0.65019405 -0.83211356 0.070358396
-1.3852226 -1.2021912 -0.58120203 1.5433987 -0.08334474 0.39694163 -0.27925506 -1.7431209
-0.6422156 1.1634694 -0.6746477 0.9448894 -0.3918443 0.7961308 -2.0259256 -1.3193675
0.38074452 1.0291834 1.8855764 -0.14834952 -1.2434295 -0.25717074 -0.6928608 -0.5107644
-1.3121616 1.1521215 1.8220886 0.33225137 0.37532756 0.6836881 -0.101810165 1.658098
-2.6555166 -0.41382506 -3.3504338 0.8783997 -2.2893264 0.21735339 -0.42261025 -0.7272659
