checkpoints/best_cnn_model.pt (torch, 183354 bytes, 28 tensors)

encoder.0.weight f4 [16, 1, 7]
0	0x3ef0492f	0.46930835
1	0x3f133db4	0.57516026
2	0xbfabc838	-1.3420477
3	0xbeee7897	-0.46576378
4	0xbe4f8dc7	-0.20268928
5	0x3e9ba938	0.3040254
6	0x3e9422f1	0.28932908
7	0x3efcb64a	0.49357826
8	0x3cc26eb8	0.023734435
9	0x3ecb6384	0.39724362
10	0xbf27bfae	-0.65526855
11	0x3e95125e	0.29115576
12	0x3f2ae9ed	0.6676319
13	0x3eca9ca5	0.39572635
14	0x3e60cac1	0.21952344
15	0x3f28bfc7	0.6591763
16	0x3e176b7c	0.14787096
17	0x3e279415	0.16365083
18	0x3cb7fd6f	0.022459714
19	0xbf44c9aa	-0.76870215
20	0xbef78cd4	-0.4834963
21	0xbf338533	-0.7012512
22	0xbf35db0c	-0.71037364
23	0xbf139514	-0.5764935
24	0x3d409783	0.047019493
25	0x3f07ce07	0.5304875
26	0x3da3010d	0.07959185
27	0x3e9fac0c	0.3118595
28	0xbf32cd36	-0.6984438
29	0x3e6c6e2d	0.23088904
30	0x3ea8d2b7	0.32973263
31	0x3f156979	0.58364064
32	0x3e43347b	0.19062988
33	0xbddc89fd	-0.10768507
34	0xbef8fd04	-0.48630536
35	0x3f59d702	0.850937
36	0x400b407d	2.175811
37	0xbd1c7fdb	-0.03820787
38	0xbf3138e5	-0.6922744
39	0x3ca37884	0.019954927
40	0xbe0cba3f	-0.13742922
41	0xbe214946	-0.15750608
42	0xbf9dcb72	-1.2327712
43	0xbf904f49	-1.1274196
44	0xbf31a0fe	-0.6938628
45	0xbe2766b7	-0.16347776
46	0x3e905501	0.28189853
47	0xbd33970b	-0.043845218
48	0x3ee27d64	0.4423629
49	0x3f60e509	0.8784948
50	0x3f0009fa	0.50015223
51	0x3e280d8f	0.16411422
52	0x3e615863	0.22006373
53	0xbedb3dd3	-0.42820606
54	0xbf26a89a	-0.65101016
55	0xbd8347ff	-0.064102165
56	0xbf1fee37	-0.6247286
57	0xbf1d4148	-0.61427736
58	0xbe1b7b21	-0.15183689
59	0xbe94b041	-0.2904072
60	0x3eda423d	0.4262866
61	0x3e950f2c	0.29113138
62	0x3f2ae0e9	0.66749436
63	0xbe25f16b	-0.16205375
64	0xbee79676	-0.4523198
65	0xbeb4b7a7	-0.35296366
66	0xbdbed3ec	-0.09317765
67	0x3ec04a0a	0.37556487
68	0x3f37f463	0.7185728
69	0x3f7dd9be	0.99160373
70	0xbe1226d8	-0.1427263
71	0xbd01ce8c	-0.03169112
72	0xbeaaa27a	-0.33327085
73	0xbf274af7	-0.6534876
74	0x3e72cc4e	0.23710749
75	0x3f2510ac	0.64478564
76	0x4006b2ba	2.1046586
77	0x3f19e769	0.6011873
78	0x3f191b25	0.59807044
79	0xbda9c84d	-0.082901575
80	0x3ec26480	0.379673
81	0xbebe23a8	-0.3713658
82	0xbe4266bc	-0.18984503
83	0xbf3db7e1	-0.741087
84	0x3f0e851c	0.5567186
85	0x3e22f3b8	0.15913284
86	0x3f178c57	0.59198517
87	0x3d6e86c1	0.05823398
88	0x3c9584e1	0.018251838
89	0x3ede9c16	0.4347846
90	0x3ee238b4	0.44183886
91	0x3f380f03	0.71897906
92	0xbe32d47e	-0.17463872
93	0xbe9d01b1	-0.30665353
94	0xbee34622	-0.44389445
95	0xbf085b43	-0.53264254
96	0x3db82699	0.08991737
97	0x3ec9ea85	0.39436737
98	0x3f1f5246	0.62234914
99	0x3ef7b8a0	0.48383045
100	0x3eeb7e43	0.45994768
101	0xbe2db188	-0.16962254
102	0xbeea4109	-0.45752743
103	0xbe349722	-0.17635778
104	0xbee3dd3a	-0.4450472
105	0x3efecc04	0.49765027
106	0x3e5438bd	0.20724769
107	0x3e9ec2b7	0.3100793
108	0xbec16be8	-0.37777638
109	0xbf362d17	-0.7116255
110	0xbf1baf28	-0.6081414
111	0x3dae6787	0.0851584

encoder.0.bias f4 [16]
0	0xbf27c2ef	-0.6553182
1	0xbf48d907	-0.7845616
2	0xbca4949d	-0.020090396
3	0x3da8bf4e	0.082396135
4	0xbe9b7329	-0.30361298
5	0xbf1cd2a1	-0.61258894
6	0xbd032191	-0.032014433
7	0xbe8f7cd9	-0.2802494
8	0x3f850f81	1.0395356
9	0x3e958cc3	0.29208955
10	0xbf1e8caa	-0.61933386
11	0xbf0ff351	-0.56230646
12	0x3f0116c2	0.5042535
13	0x3efda283	0.4953805
14	0x3e2801e2	0.16406968
15	0x3ea695e4	0.32536232

encoder.1.weight f4 [16]
0	0x3f30786e	0.6893376
1	0x3ef84824	0.4849254
2	0x400bc65f	2.1839826
3	0x3f50b1d8	0.8152137
4	0x3fc16623	1.5109295
5	0x3c4fb4fb	0.012677426
6	0x3f383180	0.7195053
7	0x3f416a46	0.75552785
8	0x3ff4a386	1.9112403
9	0x3f5eead3	0.87077063
10	0x3f3549b0	0.70815563
11	0x3fb1b036	1.38819
12	0x3ecac78f	0.39605376
13	0x3f591e75	0.848121
14	0x3f4ff059	0.81226116
15	0x3fa6fced	1.3045937

encoder.1.bias f4 [16]
0	0xbcfc9b68	-0.030835822
1	0xba3b1fda	-0.000713823
2	0x3d9005de	0.07032369
3	0xbea148d7	-0.31500885
4	0x3e3ea311	0.18616892
5	0xbdd3b683	-0.10337546
6	0xbd194d06	-0.03742697
7	0xbe04e942	-0.12979606
8	0x3e3d84e0	0.18507719
9	0x3e4c6a99	0.19962539
10	0x3d1bd8af	0.038048442
11	0x3e310443	0.17286782
12	0x3c00eb2a	0.0078685675
13	0xbd1ca605	-0.038244266
14	0x3beb9bc1	0.007190198
15	0xbda12687	-0.07868677

encoder.1.running_mean f4 [16]
0	0xbf28585d	-0.6575983
1	0xbf4921c1	-0.7856713
2	0xbca1091d	-0.019657666
3	0x3dab95b3	0.08378162
4	0xbe9abb55	-0.30221048
5	0xbf1d865d	-0.6153315
6	0xbccd6744	-0.025073655
7	0xbe90fd71	-0.2831836
8	0x3f850723	1.0392803
9	0x3e9567cb	0.2918075
10	0xbf1f8d20	-0.62324715
11	0xbf1016e8	-0.5628495
12	0x3f00acc1	0.502636
13	0x3efd19d2	0.49433762
14	0x3e25483f	0.16140841
15	0x3ea7e759	0.32793692

encoder.1.running_var f4 [16]
0	0x3d63a650	0.05557853
1	0x3f37e421	0.7183247
2	0x3da686fe	0.081312165
3	0x3ec5b5e1	0.38615325
4	0x3bb9cf37	0.005670454
5	0x3fa66c03	1.3001713
6	0x4000ca17	2.0123346
7	0x3e50a9aa	0.20377222
8	0x3e160f89	0.14654364
9	0x3ed4d69d	0.41569987
10	0x3f8d0228	1.1016283
11	0x3df2cf83	0.11855986
12	0x3fb7750a	1.4332592
13	0x3ce02e6e	0.02736589
14	0x3df30a3b	0.11867186
15	0x3e1ffd78	0.15624034

encoder.4.weight f4 [32, 16, 5]
0	0xbf28cf80	-0.6594162
1	0xbec7638c	-0.38943136
2	0xbd935c50	-0.071953416
3	0x3ec54681	0.38530353
4	0x3ecc5795	0.3991057
5	0x3d0119e7	0.031518843
6	0x3e4e6041	0.20153905
7	0x3ecd0c96	0.40048665
8	0x3efead70	0.49741697
9	0x3f3495ac	0.7054088
10	0xbe4a86a8	-0.1977793
11	0x3e11395d	0.14182039
12	0x3962eda6	0.0002164157
13	0xbec00711	-0.3750539
14	0xbd964a52	-0.07338394
15	0xbe32ac4a	-0.17448536
16	0xbeafefe8	-0.3436272
17	0xbeb583e9	-0.35452202
18	0xbea6d074	-0.32580912
19	0xbde27f70	-0.11059463
20	0x3dbb5b1e	0.091482386
21	0xbe2a7458	-0.16645944
22	0xbe5822cd	-0.21107025
23	0xbeab3e22	-0.3344584
24	0x3ea703b4	0.32620013
25	0x3da83607	0.0821343
26	0xbdbd6312	-0.09247412
27	0x3cea8081	0.028625729
28	0x3df1eb26	0.11812429
29	0x3e06016e	0.13086483
30	0xbf1e3335	-0.61796886
31	0xbf3cd062	-0.73755467
32	0xbea9b110	-0.331429
33	0x3e52402d	0.20532294
34	0x3f213cd1	0.62983423
35	0x3ed45224	0.41468918
36	0x3dfae05f	0.12249827
37	0xbe811c4a	-0.25216895
38	0xbec1db60	-0.37862682
39	0xbec2e570	-0.38065672
40	0xbf5cf816	-0.8631605
41	0xbeccd2fe	-0.40004724
42	0xbe63c7ad	-0.22244139
43	0x3ce91d5d	0.028456384
44	0xbc9062f2	-0.017625306
45	0xbe804319	-0.2505119
46	0xbe58ec09	-0.2118379
47	0x3db29606	0.08720021
48	0x3f0a31d2	0.5398227
49	0x3f665adb	0.89982384
50	0x3e38836b	0.18018882
51	0x3e5b48f8	0.21414554
52	0x3eb5c555	0.35502115
53	0x3f369ac9	0.71329933
54	0x3f857701	1.0426942
55	0x3f1d5efe	0.6147307
56	0x3e3f3cf1	0.18675591
57	0xbe1cdb23	-0.15317969
58	0xbf272d93	-0.65303916
59	0xbef2bc94	-0.474095
60	0x3c33b557	0.010968528
61	0x3d32cffe	0.043655388
62	0x3ec05c01	0.37570193
63	0x3eb3a8b6	0.35089654
64	0x3f1ab3fa	0.6043087
65	0xbea45d62	-0.32102495
66	0xbecbb49c	-0.39786232
67	0x3e505657	0.20345436
68	0x3ed10d89	0.4083064
69	0x3e545b37	0.2073792
70	0x3ee4569c	0.44597328
71	0x3d581c3d	0.052761305
72	0xbeb5e84b	-0.35528788
73	0xbf0b0bea	-0.54315054
74	0xbef58981	-0.4795647
75	0xbe6bf5a4	-0.23042923
76	0x3e65565d	0.22396226
77	0x3e8cd1eb	0.27503905
78	0x3d3dbca2	0.046322472
79	0xbe751b80	-0.23936272
80	0x3e272ad5	0.16324933
81	0xbcf8f4a6	-0.030390095
82	0x3dc28fe7	0.095001034
83	0x3e1e815a	0.15479031
84	0x3dc5f8da	0.09666605
85	0xbf13220a	-0.57473814
86	0xbe09d23e	-0.13459107
87	0xbd4a6025	-0.049408097
88	0xbdaf704a	-0.08566339
89	0xbe51a3a2	-0.20472577
90	0xbf350890	-0.7071619
91	0xbedbc814	-0.42926085
92	0xbf4b47bc	-0.7940633
93	0xbf2759ad	-0.6537121
94	0x3ebc20fa	0.3674391
95	0x3ddb08f8	0.1069507
96	0x3d743df6	0.059629403
97	0xbd01068e	-0.03150039
98	0x3ca6d6d8	0.020366117
99	0xbe649441	-0.2232218
100	0xbeac2bf7	-0.33627293
101	0xbdc8ba0d	-0.09801111
102	0xbe1b2406	-0.1515046
103	0x3e6ab03c	0.2291879
104	0x3ee6b7d3	0.45062122
105	0xbf485756	-0.78258264
106	0xbc937e6f	-0.018004624
107	0x3e794c7f	0.24345587
108	0x3c6ffb42	0.014647307
109	0xbc1c0f8b	-0.00952519
110	0x3e88daba	0.26729375
111	0x3e833175	0.2562367
112	0x3b9c2b8f	0.004765935
113	0x3cf8e4a1	0.030382456
114	0xbc105f10	-0.008811727
115	0x3da335c2	0.07969238
116	0xbf39434d	-0.7236832
117	0xbd5b567c	-0.053549275
118	0x3eb75728	0.35808682
119	0x3e38e182	0.18054774
120	0x3eebe812	0.46075493
121	0x3da7cb93	0.081931256
122	0xbe8d0af6	-0.27547425
123	0xbea0766f	-0.31340358
124	0xbf35c1e1	-0.7099896
125	0x3deee9ce	0.116656885
126	0x3e33dab2	0.17563894
127	0x3d996d0e	0.07491504
128	0xbe933186	-0.2874872
129	0xbf1ba6b5	-0.6080125
130	0xbe8f8de2	-0.28037935
131	0xbddea077	-0.1087045
132	0xbdbc81d9	-0.09204454
133	0xbe8b867c	-0.2725104
134	0xbec28129	-0.37989166
135	0xbf5b844e	-0.85748756
136	0xbfc9ee47	-1.5775841
137	0xbfeed50b	-1.8658766
138	0xbe288a81	-0.16459085
139	0x3f1bc4cf	0.6084718
140	0xbf2fdfa5	-0.6870063
141	0xbcee7edc	-0.029113226
142	0xbd83a4cb	-0.06427916
143	0xbe132911	-0.14371134
144	0x3a49524d	0.0007679805
145	0xbd3bce4e	-0.045851044
146	0x3d1103e6	0.03540411
147	0xbb3d90c7	-0.0028925405
148	0x3e501459	0.20320262
149	0x3d949ce9	0.07256491
150	0xbf8eecbe	-1.1165998
151	0xc001a216	-2.025518
152	0xbfe7689a	-1.8078797
153	0xbecf20ae	-0.4045462
154	0x3e5c24f1	0.21498467
155	0xbd642556	-0.05569967
156	0x3db53577	0.08848088
157	0x3e63bf8b	0.22241037
158	0x3ee76831	0.4519668
159	0x3eb5a754	0.35479224
160	0xbe35214d	-0.17688484
161	0xbec02886	-0.37530917
162	0xbd6443a0	-0.055728555
163	0x3dd041bb	0.10168787
164	0xbb7ef305	-0.0038902175
165	0xbf27f51c	-0.6560838
166	0xbf38e66e	-0.7222661
167	0xbf19bc08	-0.6005254
168	0xbf2dc36f	-0.67876333
169	0xbf774772	-0.9659339
170	0xbf3247c1	-0.6964074
171	0xbefed793	-0.49773845
172	0x3e887e65	0.2665893
173	0xbe62040a	-0.22071853
174	0x3f1ffb78	0.62493086
175	0x3e4cb06e	0.19989178
176	0x3dcd8053	0.100342415
177	0xbe61399f	-0.21994637
178	0xbe13d980	-0.14438438
179	0x3e8b3ad5	0.27193323
180	0x3e8710d0	0.26380014
181	0x3e387631	0.18013836
182	0xbcb3a4ee	-0.02192923
183	0xbe32419f	-0.17407845
184	0x3da094d9	0.078408904
185	0xbe817608	-0.25285363
186	0xbe815e3f	-0.25267217
187	0xbd9a6b08	-0.07539946
188	0xbe8bb962	-0.27289873
189	0xbda340a3	-0.07971313
190	0x3e2d1c16	0.16905245
191	0xbe10d92a	-0.14145342
192	0xbe68ff5f	-0.22753666
193	0xbd41ae13	-0.04728515
194	0x3deb7de6	0.114986226
195	0xbf73bb5b	-0.95207757
196	0xbfa1b3f1	-1.2633039
197	0xbf1b9a52	-0.6078235
198	0xbe85dd33	-0.26145324
199	0xbeaec31c	-0.34133232
200	0x3efe87cc	0.4971298
201	0xbe914b29	-0.28377655
202	0xbf095180	-0.53639984
203	0x3cea6d64	0.028616615
204	0x3ee4b1ab	0.446668
205	0xbdbd3a04	-0.09239581
206	0xbea33728	-0.31878018
207	0xbf10a12c	-0.5649593
208	0xbed773be	-0.42080492
209	0x3e1997e3	0.14999346
210	0xbf0fa846	-0.5611614
211	0xbf194822	-0.5987569
212	0xbf831c7c	-1.0243068
213	0xbf885f04	-1.0653996
214	0xbeab6242	-0.33473402
215	0xbf16f521	-0.5896779
216	0xbed7b59a	-0.42130738
217	0x3f0c46b5	0.5479539
218	0x3e9d9e5f	0.3078489
219	0x3eb3fa38	0.3515184
220	0xbf3db23f	-0.74100107
221	0xbf266ddd	-0.6501139
222	0xbf0e7c29	-0.55658203
223	0xbf179c30	-0.592227
224	0xbf77f523	-0.96858424
225	0xbe9528e8	-0.29132771
226	0xbf04b9c3	-0.5184595
227	0xbd65fe0f	-0.056150492
228	0x3e905c0c	0.28195226
229	0xbe5fc1b9	-0.21851243
230	0xbe633caa	-0.2219111
231	0xbe2713c7	-0.16316138
232	0x3ebcef98	0.36901546
233	0x3e87a470	0.26492643
234	0xbb8563a4	-0.004070716
235	0xbed1a362	-0.40944964
236	0xbed14560	-0.4087324
237	0xbe337456	-0.17524847
238	0xbeac70e4	-0.3367988
239	0xbe6f2566	-0.2335411
240	0xbefe3d26	-0.49656028
241	0xbebebadd	-0.3725194
242	0xbde1179e	-0.10990833
243	0x3e83a782	0.25713736
244	0x3e9644c4	0.2934934
245	0xbeb5f7ac	-0.3554052
246	0xbe014763	-0.12624888
247	0x3d9bc86b	0.07606586
248	0x3de81506	0.11332135
249	0xbd9b3c82	-0.075799
250	0x3cc181bc	0.023621432
251	0xbe0f4e5a	-0.13994732
252	0xbedb1c63	-0.42795095
253	0xbee2a7eb	-0.44268736
254	0x3e40cb4a	0.18827549
255	0xbef3d5df	-0.47624108

encoder.4.bias f4 [32]
0	0x3d7db8b1	0.061943714
1	0x3f038b0a	0.5138403
2	0x3ef4f917	0.4784629
3	0x3da7caf5	0.08193008
4	0x3e59887d	0.21243472
5	0xbf3fd076	-0.7492746
6	0xbe859d91	-0.26096776
7	0xbe4fe2ee	-0.2030141
8	0xbdc8fece	-0.09814225
9	0xbd190a8a	-0.037363566
10	0x3e1275be	0.14302728
11	0x3ebac2cb	0.3647674
12	0x3dd8e987	0.10591417
13	0xbe3f026b	-0.18653266
14	0x3eba5818	0.36395335
15	0xbe9fcbaa	-0.3121007
16	0xbe802b6e	-0.25033134
17	0x3f0661ce	0.5249299
18	0xbe618303	-0.22022633
19	0xbe5cb13e	-0.21551988
20	0x3db55d59	0.08855695
21	0xbe70cd5e	-0.23515841
22	0x3ec3108a	0.38098556
23	0x3e23e417	0.16004978
24	0x3e458a11	0.1929095
25	0x3e29f3f7	0.16596971
26	0xbdda02dd	-0.106450774
27	0xbdd78ae1	-0.10524536
28	0x3e4c73a6	0.19965991
29	0x3e8818c4	0.26581395
30	0x3ecded8f	0.40220305
31	0xbde0d5ed	-0.10978303

encoder.5.weight f4 [32]
0	0x3f926983	1.143845
1	0x3f99cd08	1.2015696
2	0x3f7174cb	0.94318837
3	0x3f50aa34	0.8150971
4	0x3f88d49a	1.0689881
5	0x3f41d019	0.75708157
6	0x3f4568fd	0.77113324
7	0x3f895236	1.0728214
8	0x3f94d3e4	1.1627164
9	0x3f8f79f6	1.1209095
10	0x3f18abaf	0.5963697
11	0x3f4516a5	0.7698768
12	0x3fcd5b69	1.6043521
13	0x3f887e2b	1.0663503
14	0x3f3ec885	0.7452472
15	0x3f236a6d	0.6383427
16	0x3fcd67ee	1.6047342
17	0x3f5c10b5	0.8596299
18	0x3fbff0ed	1.49954
19	0x3f430dd3	0.7619297
20	0x3f98a344	1.1924825
21	0x3f85679b	1.0422243
22	0x3fb7e5de	1.4367025
23	0x3f8a8ee1	1.0824853
24	0x3efde5e7	0.49589464
25	0x3f93af3d	1.1537853
26	0x3f7c4af3	0.98551863
27	0x3f7ac2e3	0.97953624
28	0x3f94425c	1.1582751
29	0x3f594646	0.84872854
30	0x3f8bdbfd	1.092651
31	0x3fb64bf0	1.4241924

encoder.5.bias f4 [32]
0	0x3c5988cd	0.013277245
1	0xbed0dfe0	-0.40795803
2	0xbe967fad	-0.29394284
3	0xbb5e56fd	-0.003392636
4	0xbea383c9	-0.31936482
5	0xbeed2dc8	-0.4632399
6	0xbeddd96a	-0.43329936
7	0x3c1d0ead	0.0095860185
8	0xbeb47b6a	-0.35250407
9	0xbe1b7c3e	-0.15184113
10	0xbe34b3f3	-0.1764677
11	0xbe6e251c	-0.23256344
12	0xbedc2aac	-0.43001306
13	0xbec18034	-0.37793124
14	0xbf5f317a	-0.8718487
15	0xbf4a2258	-0.78958654
16	0xbecb05f4	-0.3965298
17	0xbe497ff3	-0.19677715
18	0xbe85c974	-0.2613026
19	0xbe4518b4	-0.19247705
20	0xbeb09d90	-0.3449521
21	0x3e12ee2d	0.1434867
22	0xbe69b886	-0.22824296
23	0xbefb6e99	-0.49107817
24	0xbf1284df	-0.57233995
25	0xbeaa999a	-0.33320314
26	0xbf0ecf07	-0.5578465
27	0xbe62113b	-0.22076885
28	0xbee5cf6c	-0.44884813
29	0xbe9df23b	-0.3084887
30	0xbe81ccac	-0.25351465
31	0x3c6c6287	0.014427788

encoder.5.running_mean f4 [32]
0	0xbf83d267	-1.0298585
1	0xc0c1d223	-6.0569015
2	0xc091fbb6	-4.5619764
3	0xc09e4518	-4.9459343
4	0xc117279c	-9.44717
5	0xc0152592	-2.330418
6	0xbe41f9ab	-0.18942897
7	0xbfa7102a	-1.3051808
8	0xc0180957	-2.37557
9	0x3dc82361	0.09772373
10	0xc0087d0a	-2.1326318
11	0x403e0c6d	2.9695084
12	0xbf422f68	-0.75853586
13	0xc05fb3d1	-3.4953501
14	0x4130d38c	11.051647
15	0x3f98e89a	1.1945984
16	0xc0988581	-4.766297
17	0xc10572d2	-8.340532
18	0xbfa6997b	-1.3015589
19	0xc0b15b09	-5.5423627
20	0xc122fa22	-10.186068
21	0xc073472a	-3.8012185
22	0xc05ab6a5	-3.4173977
23	0xc0280c5c	-2.6257544
24	0xbee5232b	-0.44753394
25	0xc0c4a299	-6.1448483
26	0xc113ae4a	-9.230051
27	0xbfd8cd78	-1.6937704
28	0xc0b4aa8d	-5.645819
29	0xbff6f00e	-1.9292009
30	0xbfddc026	-1.7324264
31	0xc02baf80	-2.6825867

encoder.5.running_var f4 [32]
0	0x40834bab	4.102987
1	0x42803b4a	64.1158
2	0x418aa82b	17.332113
3	0x41dace08	27.350601
4	0x42bd2075	94.56339
5	0x40d650a9	6.697346
6	0x4136b76d	11.419782
7	0x40bc4669	5.883595
8	0x40f043bd	7.508269
9	0x40d17084	6.544985
10	0x4126862a	10.407755
11	0x4116b541	9.419251
12	0x40cfb8d9	6.4913144
13	0x41ba11e7	23.258741
14	0x41fa88ab	31.316732
15	0x4175cdf5	15.3627825
16	0x418e61f8	17.797836
17	0x4205b8cf	33.430477
18	0x40fdad3f	7.927398
19	0x41c40ec5	24.507212
20	0x427c3f23	63.061657
21	0x4152703d	13.152402
22	0x41aa64a5	21.299143
23	0x4128bd03	10.546145
24	0x41cf1afb	25.888174
25	0x42b5c13d	90.87742
26	0x423c8f21	47.139774
27	0x406f5b70	3.739956
28	0x41e3346b	28.400595
29	0x41345f4d	11.273267
30	0x40ce7ad6	6.4524946
31	0x4149ca24	12.611851

encoder.8.weight f4 [64, 32, 3]
0	0xbe15ef7b	-0.14642136
1	0xbeae0bf1	-0.33993486
2	0xbf8c73c1	-1.0972825
3	0xbefcce6e	-0.49376243
4	0x3e057803	0.13034062
5	0xbda6db8d	-0.08147345
6	0xbeac92be	-0.33705705
7	0x3f1525e2	0.5826093
8	0xbdbdf181	-0.09274579
9	0xbf78aa43	-0.971348
10	0xbe3e39eb	-0.18576781
11	0x3ec41f15	0.38304964
12	0x3e5d730c	0.21625918
13	0xbdc86304	-0.09784511
14	0x3b7d75b8	0.0038674902
15	0xbdc0fe76	-0.094235346
16	0x3da98270	0.08276832
17	0xbf0774fc	-0.5291288
18	0xbead7c59	-0.33883932
19	0xbf1b122c	-0.60574603
20	0xbf4fb683	-0.81137866
21	0xbe37d8f4	-0.17953855
22	0xbe88770e	-0.26653332
23	0xbe4f204c	-0.20227164
24	0x3f18c2aa	0.59672034
25	0x3d5d9ae5	0.054102797
26	0xbf484884	-0.7823565
27	0xbf0f71f5	-0.5603326
28	0x3e1106bb	0.14162724
29	0xbeec8f47	-0.46203062
30	0x3ca75369	0.020425515
31	0x3d26b23c	0.04069732
32	0xbeb28a26	-0.34871024
33	0xbefbea8d	-0.49202386
34	0xbe03c115	-0.12866624
35	0xbf2dee9e	-0.67942226
36	0xbf980b52	-1.1878455
37	0xbec1be8c	-0.37840688
38	0x3cf8bde5	0.030363986
39	0x3e15b192	0.14618519
40	0xbf1417de	-0.5784892
41	0x3ea23e23	0.31688032
42	0xbf10b126	-0.5652031
43	0xbfbec39c	-1.4903445
44	0xbf199289	-0.5998922
45	0x3f1abdff	0.6044616
46	0x3e391ed4	0.18078166
47	0xbe5c63ea	-0.21522489
48	0x3e5270c8	0.20550835
49	0xbebde507	-0.37088796
50	0xbd3c5b6f	-0.045985635
51	0xbe1ae168	-0.15125048
52	0xbc8f3298	-0.01748018
53	0x3f12f203	0.5740053
54	0x3ecf1b02	0.40450293
55	0x3e6bb265	0.23017271
56	0xbebedd8d	-0.37278405
57	0x3e72c4e2	0.23707917
58	0x3e2d58a0	0.16928339
59	0xbddf5375	-0.1090459
60	0x3d87aafd	0.0662441
61	0xbd48e9a4	-0.049050942
62	0x3e37d543	0.17952447
63	0x3e45daa5	0.19321688
64	0x3cf252bf	0.029580472
65	0xbe8a5e54	-0.27025092
66	0xbf0d5526	-0.5520805
67	0xbe9fcd82	-0.31211478
68	0xbf197543	-0.5994455
69	0xbde92d43	-0.11385586
70	0xbe1ffea8	-0.15624487
71	0xbd9f2135	-0.077700056
72	0x3f0a0d7e	0.5392684
73	0xbcfe8873	-0.031070923
74	0xbf166015	-0.5874036
75	0x3ee28b80	0.44247055
76	0x3ea44270	0.32081938
77	0x3f0a2003	0.53955096
78	0x3e3dde2c	0.18541783
79	0x3e3bdbc8	0.18345559
80	0x3da343f8	0.079719484
81	0xbf281339	-0.6565433
82	0xbac619b9	-0.0015113867
83	0xbe90f4be	-0.28311723
84	0x3eb1a1b3	0.3469368
85	0xbe9a900b	-0.3018802
86	0xbf2c8882	-0.67395794
87	0xbe88f8b1	-0.26752236
88	0xbf244641	-0.641697
89	0xbe10c6cd	-0.14138336
90	0xbea86d4a	-0.3289588
91	0x3d969757	0.073530845
92	0x3e340f93	0.17584066
93	0x3e66de62	0.2254577
94	0xbe35710f	-0.1771891
95	0xbef9b968	-0.48774266
96	0x3dd815c4	0.105510265
97	0x3ea061ec	0.31324708
98	0xbf70895c	-0.93959594
99	0x3eadf812	0.33978325
100	0x3e46d190	0.19415879
101	0xbb56948e	-0.0032742354
102	0x3e32de22	0.1746755
103	0xbeaf05c3	-0.34184083
104	0xbe01cca5	-0.12675722
105	0x3e018697	0.12648998
106	0x3e02d338	0.12775886
107	0x3beb5530	0.007181786
108	0xbe4db788	-0.20089543
109	0x3e2f1470	0.1709764
110	0x3e3fb39e	0.18720862
111	0x3e4fcf66	0.2029396
112	0x3e24eeee	0.1610677
113	0x3f1d7d7f	0.61519617
114	0xbe035927	-0.12826978
115	0xbe01bdf2	-0.12670115
116	0xbee5251f	-0.44754884
117	0x3e079b07	0.13242732
118	0x3f247e06	0.64254797
119	0x3e8ab861	0.27093795
120	0x3e20d757	0.15707146
121	0x3f1e6da1	0.6188603
122	0x3ed08cbb	0.4073237
123	0xbf6dba71	-0.9286261
124	0xbec44ac1	-0.38338283
125	0x3f5bd490	0.8587122
126	0x3f341be7	0.70355076
127	0x3edd8972	0.43268925
128	0xbf067b4a	-0.52531874
129	0xbcf5dd76	-0.030012827
130	0xbe93be9e	-0.28856367
131	0x3e9a996c	0.30195177
132	0x3ee1b996	0.44086903
133	0xbecf237f	-0.4045677
134	0xbeca9840	-0.39569283
135	0x3d14a16d	0.03628676
136	0x3e5da449	0.21644701
137	0xbdcdd149	-0.100496836
138	0x3d616e25	0.055036683
139	0xbf00244c	-0.50055385
140	0xbf0e1a5b	-0.55508965
141	0x3e72f1fa	0.23725119
142	0x3d54e8cf	0.051979836
143	0x3e8b12fc	0.2716292
144	0xbf0421cf	-0.5161409
145	0xbea7e271	-0.3278995
146	0xbef3b673	-0.47600135
147	0x3eb3feab	0.35155234
148	0xbe8cc512	-0.27494103
149	0xbe1a91b6	-0.15094647
150	0x3e18d5b4	0.14925271
151	0x3e8a00f7	0.2695386
152	0xbe8a3af3	-0.269981
153	0x3ee63c86	0.4496805
154	0x3e13c4b6	0.14430508
155	0xbeb195e5	-0.34684673
156	0x3e4f5987	0.20248996
157	0x3e79b8a4	0.24386841
158	0x3e3c9151	0.18414809
159	0x3e9decae	0.30844635
160	0x3e9b34c6	0.303137
161	0xbc9b7c1f	-0.018980084
162	0xbe6ff44f	-0.2343304
163	0xbd7a30e3	-0.06108178
164	0x3f488db7	0.7834124
165	0xbe38050d	-0.17970677
166	0xbe8c2d81	-0.27378467
167	0x3eba8103	0.36426553
168	0xbd88214a	-0.066469744
169	0xbf0bb559	-0.5457359
170	0x3eceb84d	0.40374985
171	0xbf24ad10	-0.6432657
172	0x3ea5d886	0.32391757
173	0x3f4279a5	0.75966865
174	0x3f216dc8	0.6305814
175	0xbf0961c9	-0.53664833
176	0xbe63680d	-0.22207661
177	0x3f2205a4	0.63289857
178	0x3f20461f	0.62606996
179	0x3f004144	0.5009959
180	0xbeb076b6	-0.3446557
181	0x3d10b810	0.035331786
182	0x3e173290	0.14765382
183	0x3e9a53d6	0.30142087
184	0xbea37b7d	-0.31930152
185	0xbf77da60	-0.9681759
186	0x3e718771	0.23586823
187	0xbeb051db	-0.3443745
188	0xbe934f5d	-0.28771487
189	0x3f28a9bd	0.65884
190	0x3e80c8cb	0.25153193
191	0xbe68cf00	-0.22735214
192	0xbf010c81	-0.50409704
193	0xbf8b60a7	-1.0888871
194	0xbf38abf7	-0.721374
195	0x3f626a58	0.8844352
196	0xbe381111	-0.1797526
197	0xbe811cfa	-0.2521742
198	0x3dcb57d7	0.099288635
199	0x3db16033	0.08660927
200	0x3e8fd5e1	0.28092864
201	0xbebd69d3	-0.369948
202	0xbd7e08f1	-0.062020246
203	0x3e69150b	0.22761934
204	0x3e33c61c	0.17556041
205	0x3e00d666	0.12581787
206	0x3dade5b4	0.08491078
207	0x3eb7048e	0.35745662
208	0xbf167249	-0.58768135
209	0xbf1ee405	-0.6206668
210	0xbe865b1f	-0.26241395
211	0x3cf15847	0.02946104
212	0x3e80af27	0.2513363
213	0xbe6fd70e	-0.2342188
214	0xbe70f661	-0.23531486
215	0xbe5e9f79	-0.21740521
216	0x3e8a07e0	0.26959133
217	0x3f3522cb	0.70756215
218	0xbe5c2fcb	-0.21502607
219	0xbf946a2a	-1.1594899
220	0x3ba90ddb	0.0051591224
221	0x3e89bbc0	0.26901054
222	0xbf011a53	-0.5043079
223	0xbc643260	-0.013928026
224	0x3e5c5c85	0.21519668
225	0xbeb641db	-0.3559712
226	0xbb240b60	-0.0025031194
227	0xbf5fae46	-0.87375295
228	0xbebaf527	-0.3651516
229	0xbea2befe	-0.3178634
230	0xbe9f5ba7	-0.31124613
231	0x3e5df1bf	0.2167425
232	0xbf03f10a	-0.5153967
233	0xbeaf5d84	-0.34251034
234	0x3e84e636	0.25956887
235	0xbe2c6063	-0.16833644
236	0x3f3155ad	0.69271356
237	0x3e82ffb6	0.25585717
238	0x3f2b0aaa	0.6681315
239	0x3ea8c91b	0.3296593
240	0xbe337248	-0.17524064
241	0x3e8b856b	0.27250227
242	0x3c7de425	0.015496288
243	0x3e428662	0.18996575
244	0xbdd08204	-0.101810485
245	0x3e8c5f34	0.27416384
246	0xbc8b26d8	-0.016986296
247	0xbf6cc394	-0.9248593
248	0x3eb18b3c	0.3467654
249	0xbf0f1a7d	-0.5589979
250	0x3ebbd040	0.3668232
251	0x3e7cd216	0.24689516
252	0x3f1e74e7	0.6189713
253	0xbe968e79	-0.29405573
254	0xbe5974a3	-0.212359
255	0x3e845b59	0.25850943

encoder.8.bias f4 [64]
0	0xbf4cfa1b	-0.8006913
1	0xbdbb246d	-0.09137807
2	0x3f081b52	0.5316669
3	0xbef39b15	-0.47579256
4	0xbf04d759	-0.51891094
5	0xbf6c362c	-0.9227016
6	0x3e49d7da	0.19711247
7	0xbcdfe55d	-0.027331049
8	0xbe8a4901	-0.27008823
9	0xbe7d6086	-0.24743852
10	0xbe817fbf	-0.25292775
11	0xbe8dd199	-0.27698973
12	0xbf27f748	-0.65611696
13	0xbf0257a8	-0.50915
14	0x3eba628e	0.36403316
15	0x3e3122bf	0.17298411
16	0xbf05d6e3	-0.52281016
17	0xbf24ab66	-0.64324033
18	0xbe649970	-0.22324157
19	0x3da582f9	0.08081622
20	0xbcb256bb	-0.021769872
21	0xbee1b4ec	-0.44083345
22	0x3e2df519	0.16988029
23	0x3dc09c5f	0.094048254
24	0x3efbc84f	0.4917626
25	0xbee3f51e	-0.44522947
26	0x3db957bb	0.090499364
27	0x3e4db227	0.20087491
28	0x3e96ffc9	0.29492024
29	0x3d528e61	0.051405314
30	0xbee5f8a4	-0.4491626
31	0xbd7adf74	-0.061248258
32	0xbe5c5a45	-0.2151881
33	0xbee7b116	-0.45252293
34	0x3e19280c	0.14956683
35	0xbe4b5339	-0.19855966
36	0x3f19ef52	0.601308
37	0x3ee4480e	0.44586223
38	0x3f0fd603	0.5618593
39	0x3d778fbf	0.06043982
40	0xbec4b65e	-0.38420385
41	0x3e86598e	0.262402
42	0x3e99e35f	0.30056283
43	0xbdf648be	-0.12025593
44	0x3b13fb82	0.002258033
45	0x3e945d2a	0.2897733
46	0x3e319d71	0.17345215
47	0x3e148ec2	0.14507583
48	0x3d63924d	0.055559445
49	0x3e9db35b	0.308009
50	0x3dc82b92	0.097739354
51	0x3e49878b	0.19680612
52	0xbef118fd	-0.47089377
53	0x3e914641	0.28373912
54	0xbeaeda15	-0.34150758
55	0x3dd98799	0.10621566
56	0xbf30193f	-0.6878852
57	0xbe121872	-0.14267138
58	0x3f2035e9	0.6258226
59	0x3f1f51b3	0.6223404
60	0x3d016f35	0.031600196
61	0x3e213f6c	0.1574685
62	0x3ecb10b1	0.39661172
63	0xbedaf932	-0.42768246

encoder.9.weight f4 [64]
0	0x3f78f62e	0.9725064
1	0x3f667791	0.90026194
2	0x3f9bf8ca	1.2185299
3	0x3f403234	0.75076604
4	0x3f26f23b	0.65213364
5	0x3f9a7177	1.2065877
6	0x3fae59f7	1.3621205
7	0x3f80630a	1.0030224
8	0x3f89052f	1.0704707
9	0x3f875d02	1.0575259
10	0x3f8876eb	1.0661291
11	0x3f802eee	1.0014322
12	0x3f55cddb	0.83517236
13	0x3f6fef29	0.93724304
14	0x3f8bf38e	1.0933702
15	0x3f9e1bcf	1.2352237
16	0x3f8badc2	1.0912402
17	0x3f9dd051	1.2329198
18	0x3f625a63	0.8841917
19	0x3f9870d9	1.1909438
20	0x3f8a67ff	1.0812987
21	0x3f4a569c	0.79038405
22	0x3f55efdd	0.8356913
23	0x3f8c4e8b	1.096147
24	0x3f4c6793	0.7984554
25	0x3f6e0cf4	0.92988515
26	0x3fa47194	1.2847161
27	0x3f7810ea	0.9690081
28	0x3fa776ac	1.3083091
29	0x3f4228f5	0.75843745
30	0x3f82cfea	1.02197
31	0x3f6057ee	0.8763417
32	0x3f88614d	1.0654694
33	0x3f307807	0.6893315
34	0x3f2d4ac9	0.6769224
35	0x3f3e1cd5	0.74262744
36	0x3f81662f	1.0109309
37	0x3f5ad69a	0.85483706
38	0x3f83a0c0	1.0283432
39	0x3fa4dd9e	1.2880132
40	0x3f8307a5	1.0236708
41	0x3f3d3ad4	0.7391789
42	0x3f582707	0.8443455
43	0x3fa4c1c1	1.2871629
44	0x3f84cd48	1.0375147
45	0x3f9833b6	1.1890781
46	0x3f87c127	1.060582
47	0x3f9015cb	1.1256651
48	0x3f788e4a	0.97092116
49	0x3f9beecb	1.2182249
50	0x3f521fad	0.82079583
51	0x3f51a640	0.818943
52	0x3f90edb8	1.1322546
53	0x3f5c5dc4	0.86080575
54	0x3f94b072	1.1616347
55	0x3f87790d	1.0583817
56	0x3f8b1a4e	1.0867403
57	0x3f651c19	0.89496
58	0x3f95629c	1.1670718
59	0x3f755ec0	0.958477
60	0x3f7f7fe0	0.99804497
61	0x3f5d3a0d	0.86416703
62	0x3f762a84	0.96158624
63	0x3f874995	1.056933

encoder.9.bias f4 [64]
0	0xbebf31cc	-0.3734268
1	0xbf30ae71	-0.69016176
2	0xbf31c9c2	-0.69448483
3	0xbf151fc8	-0.5825162
4	0xbe588892	-0.21145847
5	0xbf1cb224	-0.6120932
6	0xbf71708d	-0.94312364
7	0xbefc61dd	-0.49293414
8	0xbed51425	-0.41616932
9	0xbee7d5a6	-0.45280188
10	0xbee78b71	-0.45223573
11	0xbeca26d4	-0.39482749
12	0xbeb5ed03	-0.35532388
13	0xbf34f4dd	-0.7068613
14	0xbf0ae1c5	-0.54250747
15	0xbec2bf84	-0.3803674
16	0xbf28a9d5	-0.65884143
17	0xbefe5449	-0.4967368
18	0xbef51cc1	-0.478735
19	0xbf05ce2f	-0.52267736
20	0xbee130c4	-0.43982518
21	0xbf0314af	-0.51203436
22	0xbf1b6cb6	-0.60712755
23	0xbec00444	-0.37503254
24	0xbf0bc92f	-0.54603857
25	0xbf276687	-0.6539082
26	0xbf05f96c	-0.5233371
27	0xbecfa252	-0.40553528
28	0xbed87f8d	-0.42284814
29	0xbe84c144	-0.259287
30	0xbed496cb	-0.41521296
31	0xbe2c66e1	-0.1683612
32	0xbf1e9a10	-0.6195383
33	0x3c2cf448	0.010556288
34	0xbeb10fd9	-0.34582403
35	0xbe9dfcf6	-0.30857056
36	0xbf1a643d	-0.603092
37	0xbf100fa1	-0.5627385
38	0xbeccbb3c	-0.39986598
39	0xbf19eecc	-0.6013
40	0xbee5145b	-0.44742092
41	0xbe974127	-0.29541895
42	0xbf0dbcc2	-0.55366147
43	0xbf093c70	-0.53607845
44	0xbf332a1a	-0.69986117
45	0xbf56a1cd	-0.8384064
46	0xbf1fc04b	-0.6240279
47	0xbea7f2c1	-0.32802394
48	0xbea8ab92	-0.32943398
49	0xbea33c7a	-0.31882077
50	0xbf027421	-0.5095845
51	0xbd167f04	-0.036742225
52	0xbe617754	-0.22018176
53	0xbeadaf15	-0.3392264
54	0xbf0afbb2	-0.54290307
55	0xbf185b70	-0.5951452
56	0xbef6a729	-0.48174408
57	0xbeb7b8ef	-0.3588328
58	0xbed19209	-0.40931728
59	0xbe4e0741	-0.20119955
60	0xbf08ad23	-0.53389186
61	0xbeddaaaa	-0.4329427
62	0xbdbb1b6b	-0.09136089
63	0xbed3a6f8	-0.41338325

encoder.9.running_mean f4 [64]
0	0xc0a357f6	-5.1044874
1	0x3faf2023	1.3681682
2	0xbf1b9e3d	-0.6078833
3	0x3f660ce4	0.8986342
4	0xbfc30135	-1.5234743
5	0xc0bc6680	-5.887512
6	0xbf6f4ec1	-0.93479544
7	0xc0855b40	-4.167389
8	0xc0895edb	-4.292829
9	0xbfd60b6c	-1.6722236
10	0xc09597f6	-4.6748
11	0xbfeff96e	-1.8747995
12	0xbf56312d	-0.83668786
13	0xc08d2549	-4.4108014
14	0xc00bd767	-2.185022
15	0xc0186c24	-2.3816004
16	0x3deb8fcb	0.11502036
17	0xc075da8a	-3.8414636
18	0xc0117fc3	-2.273423
19	0xc0725322	-3.786324
20	0xc01f5ccd	-2.490039
21	0xc04510d1	-3.0791514
22	0xc00df94d	-2.218341
23	0xc0b0b47f	-5.522033
24	0x402d2353	2.705281
25	0x4078d21c	3.887824
26	0xc02f92a5	-2.7433255
27	0xbff509b4	-1.9143586
28	0xc06f7782	-3.7416692
29	0xbf8e7198	-1.1128416
30	0xc07ae3cc	-3.9201536
31	0xbff9f624	-1.9528241
32	0xbfe275f3	-1.7692245
33	0xc0a5f65c	-5.186323
34	0x401b65aa	2.42808
35	0xbec1f472	-0.3788181
36	0xbfbe5437	-1.486945
37	0x3ffb5316	1.9634731
38	0xbf1e7610	-0.618989
39	0xc02b7d74	-2.679532
40	0xc09bdf85	-4.871035
41	0xbf83e9cf	-1.0305728
42	0xc021bbce	-2.5270877
43	0xc08c1adf	-4.37828
44	0xc02ad6a8	-2.6693516
45	0xc067c34f	-3.6212957
46	0xc04bb5a6	-3.182962
47	0xbfa804e4	-1.3126493
48	0xbf918a71	-1.1370374
49	0xc057f277	-3.3741739
50	0xc011e287	-2.2794511
51	0xc02a48f2	-2.6607022
52	0xc0bb9d3f	-5.862945
53	0xc05f87bb	-3.4926593
54	0xc019b944	-2.4019327
55	0xc087b671	-4.2410207
56	0xc0889cc5	-4.269137
57	0xc02f7e92	-2.7421002
58	0xc043d5a0	-3.0599136
59	0xc0252622	-2.5804524
60	0xc032691f	-2.787666
61	0xbfa2062c	-1.2658134
62	0xc0854e87	-4.165836
63	0xbff2af94	-1.8959832

encoder.9.running_var f4 [64]
0	0x410b2d51	8.698564
1	0x407b0bec	3.9226027
2	0x40952fcd	4.662085
3	0x3fe6f93a	1.8044808
4	0x406c5e50	3.6932564
5	0x40f01702	7.5028086
6	0x40a06184	5.011904
7	0x40a7df1c	5.245985
8	0x40dd2bb7	6.9115863
9	0x406efd3a	3.7342057
10	0x40b7388a	5.7256517
11	0x411548cf	9.330276
12	0x40270351	2.6095774
13	0x409359d6	4.6047163
14	0x4103860c	8.220226
15	0x40ffa591	7.9889607
16	0x41025d65	8.147801
17	0x40f677b2	7.7021112
18	0x406594de	3.5872111
19	0x4100d648	8.052315
20	0x41023206	8.137213
21	0x409bb870	4.8662643
22	0x408dd86b	4.432668
23	0x40bc64d5	5.8873086
24	0x409ddcb9	4.9331937
25	0x40ce9b57	6.4564624
26	0x40ea9615	7.3308206
27	0x408b648c	4.356024
28	0x4113a297	9.227195
29	0x40544bc6	3.3171248
30	0x40b5a776	5.676692
31	0x40ee332d	7.443747
32	0x4070ebe1	3.764397
33	0x4091d2a4	4.556963
34	0x404b8311	3.1798747
35	0x408a0275	4.3128
36	0x40bf9130	5.986473
37	0x40b64892	5.6963587
38	0x408430d0	4.1309586
39	0x41198def	9.597152
40	0x40efa610	7.4890213
41	0x40500c1f	3.2507398
42	0x40e8abf6	7.2709913
43	0x40c6b129	6.209126
44	0x408b06ae	4.3445654
45	0x40ef24f2	7.47326
46	0x411e49c3	9.893008
47	0x411e15a9	9.880288
48	0x4097df00	4.7459717
49	0x410c0990	8.752335
50	0x40deb1c2	6.959199
51	0x40e855dd	7.2604814
52	0x41125c75	9.1475725
53	0x40b71ff7	5.722652
54	0x410c32f0	8.762436
55	0x40c98a66	6.2981443
56	0x40a5bf52	5.1796045
57	0x40ab0e11	5.345467
58	0x41327ad5	11.154988
59	0x40bf7500	5.983032
60	0x40b5bea8	5.6795235
61	0x40a7fea5	5.2498345
62	0x40f7a384	7.7387104
63	0x4101bed4	8.109089

encoder.12.weight f4 [128, 64, 3]
0	0xbe9bc50f	-0.3042378
1	0xbec5c200	-0.38624573
2	0xbf45ef8b	-0.7731864
3	0x3ed2b1cb	0.4115127
4	0xbe266469	-0.16249241
5	0x3ec4e8b6	0.38458794
6	0xbe093bae	-0.13401672
7	0x3dc294f6	0.09501068
8	0xbf4ca135	-0.7993348
9	0xbe97d5a3	-0.2965518
10	0xbcad6fcd	-0.021171475
11	0x3da009cd	0.07814369
12	0x3e31776d	0.17330714
13	0x3e019160	0.12653112
14	0xbf37f9c9	-0.71865517
15	0x3cc982b1	0.024598451
16	0x3e9d91c6	0.3077528
17	0x3edea30d	0.43483773
18	0x3eccb1f1	0.3997951
19	0xbe59c325	-0.21265848
20	0xbed1eb98	-0.41000056
21	0x3f0e8b63	0.5568144
22	0x3ed9233c	0.42409694
23	0xbd9325d0	-0.071849465
24	0xbe27c254	-0.16382724
25	0xbefc53c6	-0.49282664
26	0xbf1291a2	-0.5725347
27	0x3ed8f310	0.42372942
28	0x3e861c26	0.2619335
29	0x3ccfb2ed	0.025353873
30	0x3eba2431	0.36355737
31	0x3eca6481	0.39529803
32	0xbe2ad27a	-0.16681853
33	0xbed992bf	-0.4249477
34	0x3ea00992	0.31257302
35	0x3f256c0f	0.6461801
36	0x3f383599	0.71956784
37	0x3ec186a6	0.3779804
38	0x3e7826e2	0.24233583
39	0xbee657eb	-0.4498895
40	0xbe1d20dc	-0.15344566
41	0x3f1d951c	0.6155565
42	0x3f1de457	0.61676544
43	0xbd8364b0	-0.06415689
44	0x3f1da138	0.61574125
45	0x3e820c97	0.2540023
46	0xbe00cb23	-0.1257749
47	0xbf16c2b0	-0.5889082
48	0xbe1c59e4	-0.15268666
49	0x3e1f0a35	0.15531237
50	0x3eb6e1e7	0.35719225
51	0x3d22bb84	0.03972961
52	0x3e8cd25b	0.27504238
53	0x3e8843ee	0.26614326
54	0xbef0c9e3	-0.47029027
55	0xbd6d1060	-0.057876945
56	0xbd66d074	-0.05635114
57	0xbe8b7c1a	-0.2724312
58	0xbe96d63d	-0.29460326
59	0x3e779153	0.2417653
60	0x3da5cfd2	0.08096279
61	0xbe743373	-0.23847751
62	0xbf27ea11	-0.6559153
63	0xbf0d707d	-0.5524977
64	0xbf0a6399	-0.54058224
65	0xbe08910a	-0.13336578
66	0x3f165fbd	0.58739835
67	0x3e5208d8	0.20511186
68	0xbf3d9d0c	-0.7406776
69	0x3e729c44	0.23692423
70	0x3dec1541	0.11527491
71	0xbeba7404	-0.36416638
72	0xbd34954c	-0.044087693
73	0x3c6aea3f	0.014338075
74	0xbe56340d	-0.20918293
75	0xbf06f8b1	-0.5272322
76	0x3e5bf88e	0.21481535
77	0xbe889c99	-0.26681975
78	0x3e12c00d	0.14331074
79	0x3e60d65c	0.21956772
80	0x3e8d5fd9	0.27612188
81	0xbf65f267	-0.89823
82	0xbeb3b472	-0.35098606
83	0xbf364778	-0.712028
84	0xbde5cc02	-0.11220552
85	0x3e3ad2f7	0.18244539
86	0xbf399daa	-0.725062
87	0xbf2a1716	-0.66441476
88	0xbd833b1a	-0.06407757
89	0xbea0744b	-0.31338724
90	0xbe81f438	-0.25381637
91	0x3f072327	0.52788013
92	0x3d85bf9d	0.06530688
93	0x3f264828	0.6495385
94	0x3f16faf9	0.58976704
95	0x3ddd128d	0.10794554
96	0x3e87d45c	0.26529205
97	0x3c99ddfc	0.018782608
98	0xbe82717e	-0.25477213
99	0xbf31e93a	-0.694965
100	0xbd942ace	-0.07234727
101	0xbee94566	-0.4556076
102	0xbebb03ac	-0.3652624
103	0x3ccb0b02	0.024785522
104	0xbef16cf6	-0.47153443
105	0xbe3ab269	-0.1823212
106	0xbf0f314a	-0.55934584
107	0x3e821666	0.25407714
108	0xbea997d0	-0.33123636
109	0xbf011a6b	-0.50430936
110	0xbd7a0ef3	-0.061049413
111	0x3ec04937	0.37555858
112	0x3da0ddc1	0.07854796
113	0xbdf2ced8	-0.118558586
114	0x3e836fd2	0.2567125
115	0xbddd659d	-0.10810397
116	0xbf35afdd	-0.7097147
117	0x3ecc1e1e	0.39866728
118	0x3e822324	0.25417435
119	0xbeafa51d	-0.3430566
120	0xbeea75dc	-0.45793045
121	0x3ecc6ac9	0.3992522
122	0xbf60dd8a	-0.8783804
123	0xbf4e69dd	-0.80630285
124	0xbeeb9ce0	-0.46018124
125	0xbec4b0bd	-0.3841609
126	0xbd834119	-0.06408901
127	0x3e6d6a59	0.231851
128	0xbee0dddb	-0.43919262
129	0x3eac7797	0.3368499
130	0x3e3cc4be	0.18434426
131	0xbf41c3b0	-0.7568922
132	0xbe8e5a92	-0.27803475
133	0xbe086896	-0.13321146
134	0xbce1499b	-0.027500918
135	0x3e584af4	0.21122342
136	0xbe49848f	-0.19679473
137	0xbecf12af	-0.40443942
138	0xbdbcec5e	-0.09224771
139	0x3f22774e	0.63463295
140	0xbdd30330	-0.10303342
141	0xbdc011aa	-0.09378369
142	0xbe155d04	-0.14586264
143	0xbf7b113c	-0.9807317
144	0x3daeae36	0.08529322
145	0x3efcc4d9	0.49368933
146	0x3e9cabb1	0.3059974
147	0xbf398c74	-0.7247994
148	0x3d574fa2	0.05256618
149	0xbefb7a36	-0.49116677
150	0xbf09e7a7	-0.538691
151	0xbdd91fab	-0.10601743
152	0x3ef5306c	0.47888505
153	0x3ed7d4c7	0.42154524
154	0x3ed9968e	0.42497677
155	0x3ea5a9c9	0.32356098
156	0xbf022807	-0.50842327
157	0xbe3ff2b2	-0.18744925
158	0xbf1bccaf	-0.608592
159	0x3f1a25b7	0.602138
160	0x3dc8e963	0.0981014
161	0x3e90607e	0.28198618
162	0x3e4ba15c	0.19885772
163	0xbb269919	-0.0025420843
164	0xbe35033f	-0.1767702
165	0xbe4d53ca	-0.20051494
166	0xbda69568	-0.08133966
167	0x3f298271	0.6621466
168	0x3f865a68	1.049634
169	0xbe41d408	-0.1892854
170	0xbf19b748	-0.6004529
171	0x3f040950	0.5157671
172	0x3f078260	0.5293331
173	0x3d078137	0.033082213
174	0xbdcebe22	-0.10094859
175	0xbf0664b7	-0.5249743
176	0x3d3b839c	0.04577981
177	0xbd25b45e	-0.040455215
178	0xbf6f31d0	-0.9343538
179	0x3edfbdb9	0.43699434
180	0xbda09a7a	-0.07841964
181	0xbf303961	-0.68837553
182	0xbf69d79b	-0.9134461
183	0xbce01aa8	-0.02735646
184	0xbc210f4f	-0.00983031
185	0xbe937a84	-0.2880441
186	0xbec84e45	-0.39122215
187	0xbe207fa3	-0.1567369
188	0xbf229b42	-0.63518155
189	0x3e98164e	0.29704517
190	0x3d91a8f3	0.07112303
191	0xbf92f3ee	-1.1480691
192	0xbbc10fc0	-0.00589177
193	0xbf222f26	-0.6335319
194	0x3e958985	0.29206482
195	0xbdca99d2	-0.0989262
196	0xbde28ed3	-0.11062398
197	0xbe8738b2	-0.26410443
198	0x3f16ae10	0.5885935
199	0x3f486ea5	0.7829383
200	0x3e7ec886	0.24881181
201	0x3adbea63	0.0016778227
202	0xbebf21f6	-0.37330598
203	0xbf41d65c	-0.7571771
204	0xbec092d5	-0.37612024
205	0x3f10940b	0.56475896
206	0x3eb7d8b4	0.3590752
207	0xbdab183b	-0.08354231
208	0x3de1f6b9	0.11033387
209	0x3df32bca	0.118735865
210	0xbec30893	-0.3809248
211	0x3e8d5b2c	0.2760862
212	0x3eba863f	0.36430547
213	0xbde2ac33	-0.11068001
214	0x3e13d8dd	0.14438196
215	0x3ead381c	0.3383187
216	0xbcd1abb0	-0.025594562
217	0x3ef6e04e	0.48218006
218	0xbe6be439	-0.23036279
219	0x3d55182e	0.052025013
220	0x3dafb891	0.08580125
221	0xbf16c9b1	-0.58901507
222	0x3ec98f0a	0.39366943
223	0xbebbbfe3	-0.36669835
224	0xbe9aa291	-0.30202153
225	0x3e01cbc1	0.12675382
226	0xbe86c334	-0.26320803
227	0x3e4bc37f	0.19898795
228	0x3d05546b	0.03255121
229	0xbe349bed	-0.17637606
230	0x3e5f8f12	0.2183192
231	0x3ef65b1b	0.48116383
232	0xbd3ee347	-0.046603467
233	0x3e3d5f13	0.18493299
234	0xbd5d67f8	-0.05405423
235	0x3e8da090	0.27661562
236	0xbf54a5ea	-0.83065665
237	0xbecb7e85	-0.39744964
238	0x3eb1d9aa	0.34736377
239	0x3e87c5ba	0.2651804
240	0x3efd48d6	0.49469632
241	0xbe985e57	-0.29759476
242	0x3f08a9b5	0.5338395
243	0x3e1febaf	0.1561725
244	0xbec11e85	-0.37718597
245	0x3e8e8320	0.27834415
246	0x3dcb7af0	0.09935558
247	0x3e080162	0.13281778
248	0xbf09de4a	-0.5385481
249	0xbeb49259	-0.35267904
250	0xbe9eaf6f	-0.3099322
251	0x3dcd7824	0.10032681
252	0xbee7c8fc	-0.45270526
253	0x3e45bd49	0.19310488
254	0xbfd9ffa9	-1.7031146
255	0xbbc0361c	-0.0058658253

encoder.12.bias f4 [128]
0	0xbe9e6076	-0.3093297
1	0xbdfc9a04	-0.12334064
2	0x3c936f50	0.017997414
3	0x3ebf53ee	0.3736872
4	0xbd63b57c	-0.055593
5	0x3da72aad	0.08162437
6	0xbe97f855	-0.2968165
7	0x3e8d7a5f	0.27632424
8	0xbf1d8809	-0.615357
9	0xbe016832	-0.12637404
10	0x3eb29c5e	0.34884924
11	0x3e0c37c2	0.13693145
12	0x3e937774	0.28802073
13	0xbf07ee0c	-0.53097606
14	0xbe068fd0	-0.13140798
15	0x3d89f550	0.06736243
16	0x3df6d8de	0.12053083
17	0x3e80931a	0.2511223
18	0xbe1fc7ac	-0.15603513
19	0x3e399f29	0.18127121
20	0x3f1d7183	0.6150133
21	0xbeb7f8ab	-0.35931906
22	0x3e80b3e8	0.25137258
23	0x3ef8fbe2	0.4862967
24	0x3e699a13	0.22812681
25	0x3da275ba	0.07932611
26	0x3e5a1352	0.21296433
27	0x3e0ac1cd	0.13550492
28	0x3f285038	0.65747404
29	0x3f221f52	0.6332904
30	0x3f25d154	0.64772534
31	0xbab57bd1	-0.0013846104
32	0x3ea9be3c	0.3315295
33	0xbe50d500	-0.20393753
34	0xbe085482	-0.13313487
35	0x3b018bab	0.0019767086
36	0xbafa73a8	-0.0019107955
37	0xbf511d1b	-0.81685036
38	0xbe7d898c	-0.24759501
39	0x3e187898	0.14889753
40	0xbf00ade8	-0.5026536
41	0x3f3d13df	0.73858446
42	0x3ee4144a	0.4454673
43	0x3e7c1a7a	0.24619475
44	0xbde1b4aa	-0.11020787
45	0xbe85c982	-0.261303
46	0xbed219b8	-0.41035247
47	0xbf0fa49e	-0.5611056
48	0xbc891113	-0.016731774
49	0xbe8349cc	-0.2564224
50	0xbdbfce21	-0.09365488
51	0xbe81a3ec	-0.25320375
52	0x3f0ec6bc	0.55771995
53	0x3e2b8676	0.16750512
54	0x3f3887ce	0.7208222
55	0x3ebc22e4	0.3674537
56	0xbd21c6ec	-0.039496347
57	0x3f18250b	0.59431523
58	0x3e93f7e3	0.2890006
59	0x3df6248d	0.1201869
60	0x3dae5dca	0.085139826
61	0x3d3f9d91	0.046781126
62	0xbeb63f4c	-0.35595167
63	0x3e2b8d90	0.1675322
64	0xbc8fe88a	-0.017566938
65	0xbd8a0a40	-0.06740236
66	0xbe95c204	-0.29249585
67	0x3ed9d94a	0.4254859
68	0xbeabef7f	-0.3358116
69	0xba0f41bc	-0.0005464812
70	0x3d4d1b56	0.050074898
71	0xbf0488c8	-0.5177121
72	0xbe9ece39	-0.3101671
73	0x3e367693	0.1781867
74	0x3c7b8bf9	0.015353196
75	0x3f516c20	0.8180561
76	0xbc11cb83	-0.008898619
77	0xbe988d10	-0.29795122
78	0xbe3260e0	-0.17419767
79	0x3eefd39a	0.46841127
80	0xbe4e830b	-0.20167176
81	0xbe6f65d0	-0.23378682
82	0xbe042978	-0.12906444
83	0x3f1116fc	0.56675696
84	0x3e3f90f9	0.18707646
85	0xbe314443	-0.17311196
86	0x3df9c202	0.12195207
87	0x3f2526e7	0.64512485
88	0xbdd0f6cf	-0.10203325
89	0x3eca626c	0.39528215
90	0x3efd8694	0.49516737
91	0x3ee75ccb	0.45187983
92	0x3e92a876	0.2864415
93	0xbdad524e	-0.08462964
94	0x3e231619	0.15926398
95	0x3ee3ee05	0.44517532
96	0x3e06d3eb	0.13166778
97	0xbd7cb1b4	-0.06169291
98	0xbe010367	-0.12598954
99	0xbe276879	-0.16348447
100	0x3dcf2b37	0.101156645
101	0xbe2e4a8a	-0.17020622
102	0x3b44ca0c	0.0030027656
103	0xbea18c7c	-0.31552494
104	0xbcdf1385	-0.027230987
105	0x3e3dc342	0.18531516
106	0x3ed29372	0.41128117
107	0xbe1bd130	-0.15216517
108	0x3efb2519	0.4905174
109	0x3e04fa3e	0.12986085
110	0x3e686b6a	0.22697225
111	0x3e7b582f	0.24545358
112	0x3e919236	0.28431863
113	0xbe4904a1	-0.19630672
114	0xbe3d4a28	-0.1848532
115	0x3ec44677	0.3833501
116	0xbdd2f393	-0.10300364
117	0x3e9dd3ff	0.30825803
118	0xbd88acb9	-0.06673569
119	0xbed6d55a	-0.4195965
120	0x3df51f41	0.11968852
121	0x3d205bde	0.03915011
122	0x3eca3773	0.3949543
123	0x3f3853c9	0.72002846
124	0x3e50dcbf	0.20396708
125	0xbea7d0a1	-0.3277636
126	0xbee47609	-0.44621304
127	0xbd936a09	-0.07197959

encoder.13.weight f4 [128]
0	0x3f283214	0.65701413
1	0x3f85c5b6	1.0450962
2	0x3f6ef88b	0.93347996
3	0x3ee295a5	0.44254795
4	0x3f8eae26	1.1146896
5	0x3f84bfac	1.0370994
6	0x3f93ed82	1.1556857
7	0x3f142ce1	0.5788098
8	0x3f3594e8	0.7093034
9	0x3f93b6ba	1.1540139
10	0x3f769734	0.9632447
11	0x3f824979	1.0178672
12	0x3f8b8e26	1.0902755
13	0x3f3629ac	0.71157336
14	0x3f8920c0	1.071312
15	0x3f67e0d1	0.9057742
16	0x3f41fb75	0.7577432
17	0x3f807fef	1.0039042
18	0x3f968292	1.1758597
19	0x3f207e0b	0.62692326
20	0x3f596376	0.8491739
21	0x3f6b63a1	0.91948897
22	0x3f538042	0.8261758
23	0x3f6b7326	0.9197258
24	0x3f8b07cf	1.0861758
25	0x3fa2cd74	1.2718949
26	0x3fa335c9	1.2750789
27	0x3f90fc97	1.1327084
28	0x3f88aa32	1.067694
29	0x3f8e5b6d	1.1121651
30	0x3f8b40f8	1.0879202
31	0x3f41c1d7	0.756864
32	0x3f56ea52	0.83951294
33	0x3fc59320	1.5435524
34	0x3f940856	1.1565044
35	0x3f9705ef	1.1798686
36	0x3f8082fc	1.0039973
37	0x3fb8519c	1.4399905
38	0x3f90f308	1.1324167
39	0x3f978d6a	1.1840031
40	0x3f81273a	1.0090096
41	0x3f61ca0b	0.8819892
42	0x3f4f2aba	0.8092457
43	0x3fa0f4aa	1.2574666
44	0x3f6fcdc1	0.9367333
45	0x3f9db887	1.2321938
46	0x3f8c1ac4	1.0945668
47	0x3fa925c2	1.3214648
48	0x3f9921bb	1.1963419
49	0x3f9509e3	1.1643642
50	0x3f3611f0	0.7112112
51	0x3f376106	0.7163242
52	0x3f8c2190	1.0947742
53	0x3f85a906	1.0442207
54	0x3f6f2d70	0.9342871
55	0x3f872984	1.0559545
56	0x3fc6d67a	1.5534203
57	0x3f976206	1.1826789
58	0x3f7a4b01	0.97770697
59	0x3fa98527	1.324376
60	0x3f82f1a5	1.0229994
61	0x3f62aa89	0.88541466
62	0x3f95f52a	1.1715443
63	0x3e50e7e6	0.20400962
64	0x3f63ab1f	0.88932985
65	0x3f2c151d	0.67219716
66	0x3f907466	1.1285522
67	0x3f924d6b	1.1429876
68	0x3f7b48f6	0.98158205
69	0x3f687308	0.90800524
70	0x3f844d7f	1.033615
71	0x3f437ab4	0.76359105
72	0x3f36b31b	0.71367043
73	0x3f6c7659	0.92368084
74	0x3fd84569	1.6896182
75	0x3efa39b6	0.48872155
76	0x3f8bf55d	1.0934254
77	0x3f9aea93	1.2102836
78	0x3f7b8ba4	0.9825995
79	0x3f4b0a62	0.7931272
80	0x3f8fe309	1.1241161
81	0x3f7ef092	0.9958583
82	0x3f867ae6	1.0506256
83	0x3fae3193	1.3608879
84	0x3f2ad5d8	0.6673255
85	0x3f660e70	0.8986578
86	0x3f7ae8cd	0.98011476
87	0x3f4d25c3	0.80135745
88	0x3f8b48db	1.0881609
89	0x3f5339f0	0.8251028
90	0x3f76d978	0.9642558
91	0x3f8770e5	1.0581328
92	0x3f8e9b43	1.1141132
93	0x3f61ba4e	0.88174903
94	0x3f97d1c0	1.1860886
95	0x3f3d65fb	0.73983735
96	0x3f8d720b	1.1050428
97	0x3f84d91a	1.0378754
98	0x3f8ebbb9	1.1151038
99	0x3f69f6b5	0.9139207
100	0x3f8a6c24	1.0814252
101	0x3fa12caf	1.2591761
102	0x3f82e590	1.0226307
103	0x3f8cc316	1.0997036
104	0x3f5f0561	0.8711758
105	0x3fa168aa	1.2610066
106	0x3f9dd74d	1.233133
107	0x3f98e8f0	1.1946087
108	0x3f944ae9	1.1585361
109	0x3fa1c172	1.263716
110	0x3f94c855	1.1623636
111	0x3f89aa9e	1.0755193
112	0x3efcad19	0.49350813
113	0x3f621423	0.88311976
114	0x3f5c91de	0.86160076
115	0x3f73ca6b	0.9523074
116	0x3f8c9c80	1.098526
117	0x3f77638a	0.9663626
118	0x3f83a4ca	1.0284665
119	0x3f8a6abd	1.0813824
120	0x3f995949	1.1980373
121	0x3f74ba0b	0.9559638
122	0x3fa12e2c	1.2592216
123	0x3f982251	1.1885473
124	0x3f3e46e0	0.74326897
125	0x3f8fb0ba	1.1225808
126	0x3f96dc93	1.1786064
127	0x3f7e775a	0.99400866

encoder.13.bias f4 [128]
0	0xbf032de9	-0.5124193
1	0xbe7ea31b	-0.24866907
2	0xbf18bf01	-0.5966645
3	0xbf49c6b4	-0.7881882
4	0xbe6093a7	-0.21931325
5	0xbf31fd6f	-0.69527334
6	0xbe525aec	-0.20542496
7	0xbf344bbc	-0.7042806
8	0xbf05a4c4	-0.5220454
9	0xbe5ed9d4	-0.21762782
10	0xbec7ffa0	-0.39062214
11	0xbe97b457	-0.29629776
12	0xbe78b1de	-0.24286601
13	0xbf08c725	-0.5342887
14	0xbe62fafd	-0.22166057
15	0xbec42e52	-0.3831659
16	0xbf02197a	-0.50820124
17	0xbf440119	-0.76564175
18	0xbe194e1b	-0.14971201
19	0xbf50524c	-0.81375575
20	0xbf422354	-0.75835156
21	0xbe6a3c04	-0.22874457
22	0xbedc2df2	-0.43003803
23	0xbed52547	-0.41630003
24	0xbe851dc4	-0.25999272
25	0xbe425eb2	-0.18981436
26	0xbf52843d	-0.8223303
27	0xbe719275	-0.23591025
28	0xbe924a8d	-0.28572503
29	0xbe641720	-0.22274446
30	0xbe20f47a	-0.1571826
31	0xbedcaf32	-0.43102413
32	0xbee058b9	-0.4381769
33	0xbf67f8bb	-0.9061391
34	0xbdf563c0	-0.119819164
35	0xbe54705c	-0.20745987
36	0xbe902eb4	-0.28160632
37	0xbf9019ee	-1.1257913
38	0xbe3587ff	-0.1772766
39	0xbe93157d	-0.28727332
40	0xbebd947a	-0.3702734
41	0xbf24c3a6	-0.64361036
42	0xbee7c48a	-0.45267135
43	0xbe3b884c	-0.18313712
44	0xbec91ac6	-0.3927824
45	0xbd87e412	-0.06635298
46	0xbe789fda	-0.24279729
47	0xbe109598	-0.14119565
48	0xbe1d9819	-0.15390052
49	0xbe627eb7	-0.2211865
50	0xbf195777	-0.59899086
51	0xbf40e509	-0.7534948
52	0xbf3d3b12	-0.7391826
53	0xbea956bf	-0.33073995
54	0xbee9e10a	-0.45679504
55	0xbeaec9a6	-0.3413822
56	0xbf4b4992	-0.79409134
57	0xbe56672b	-0.20937793
58	0xbeac4e59	-0.33653525
59	0xbe800abb	-0.25008187
60	0xbe87f91e	-0.2655725
61	0xbef54269	-0.4790223
62	0xbf11fcb4	-0.5702622
63	0xbf29e2ab	-0.6636149
64	0xbf0efbd1	-0.5585299
65	0xbf77cf8b	-0.9680106
66	0xbe51ab14	-0.20475417
67	0xbe4e971c	-0.20174831
68	0xbf0070fa	-0.5017239
69	0xbf52d447	-0.8235516
70	0xbea1828c	-0.31544912
71	0xbee6ffe6	-0.4511711
72	0xbf484385	-0.78228027
73	0xbed0bcf0	-0.40769148
74	0xbf969b93	-1.1766227
75	0xbf3f14a4	-0.7464087
76	0xbe9a77b9	-0.30169466
77	0xbe28ff61	-0.1650367
78	0xbea98ef5	-0.3311688
79	0xbefb9358	-0.49135852
80	0xbe890f9f	-0.2676973
81	0xbea8904b	-0.32922587
82	0xbf38572e	-0.72008026
83	0xbe28dfce	-0.16491625
84	0xbf1c5e07	-0.61080974
85	0xbf0e43c6	-0.55572164
86	0xbea34884	-0.31891263
87	0xbef976d9	-0.48723486
88	0xbf85c805	-1.0451666
89	0xbf032e96	-0.5124296
90	0xbebe6049	-0.37182835
91	0xbec59a2c	-0.38594186
92	0xbe7c7cd2	-0.2465699
93	0xbecbd6e7	-0.39812395
94	0xbe2cbdae	-0.16869232
95	0xbee0eddf	-0.4393148
96	0xbe6076c8	-0.21920311
97	0xbe70fa30	-0.23532939
98	0xbe823073	-0.2542759
99	0xbeed82d5	-0.4638888
100	0xbf528014	-0.8222668
101	0xbe4d296d	-0.20035334
102	0xbe99cd2f	-0.30039355
103	0xbe750ff3	-0.23931865
104	0xbf50d50e	-0.81575096
105	0xbe0975f2	-0.13423899
106	0xbe4934bc	-0.19649023
107	0xbf9f06c3	-1.2423939
108	0xbe415937	-0.18881689
109	0xbe37f034	-0.17962724
110	0xbe51ceef	-0.20489095
111	0xbe967d79	-0.29392603
112	0xbf2b048e	-0.66803825
113	0xbeebf219	-0.46083143
114	0xbefb7c2a	-0.49118167
115	0xbea10673	-0.31450233
116	0xbe6cdf7e	-0.2313213
117	0xbea0505e	-0.31311315
118	0xbebf2777	-0.37334797
119	0xbe8e6a9e	-0.27815717
120	0xbe8c1fe4	-0.2736808
121	0xbf01bdbe	-0.5068015
122	0xbe456238	-0.19275749
123	0xbe7ef8d6	-0.24899611
124	0xbf2347cc	-0.6378143
125	0xbe787334	-0.24262697
126	0xbe2d4751	-0.16921736
127	0xbe909321	-0.2823725

encoder.13.running_mean f4 [128]
0	0xc05fbf24	-3.4960413
1	0xbfdcd267	-1.725171
2	0xbfe66bd0	-1.8001652
3	0xbfbf9cfa	-1.496978
4	0xbfa59848	-1.2937098
5	0xbfba8795	-1.4572626
6	0xc0019843	-2.0249183
7	0xbfb832cc	-1.4390502
8	0xc033ad71	-2.807461
9	0xbfc7ed27	-1.5619248
10	0xc02f7028	-2.7412205
11	0xbfa0926c	-1.2544684
12	0xbf9b345a	-1.2125351
13	0xbf845f9e	-1.034168
14	0xbfa37502	-1.2770083
15	0xbfb69f09	-1.4267284
16	0xc0433818	-3.0502987
17	0xc0715391	-3.7707255
18	0xbf942f54	-1.1576943
19	0xbf1ca32f	-0.611865
20	0xbf6fe71a	-0.9371201
21	0xbfd71f17	-1.6806363
22	0xbf75b8c0	-0.9598503
23	0xbc3d92cf	-0.011570646
24	0xc019ee8d	-2.405185
25	0xbfd10b1b	-1.6331514
26	0xbfb738da	-1.4314225
27	0xc01af0c6	-2.4209456
28	0x3fbca86a	1.4738896
29	0x3f97e733	1.1867431
30	0xbf66926b	-0.90067166
31	0xc01ffe3a	-2.4998918
32	0xbff85702	-1.9401553
33	0xbf59842f	-0.8496732
34	0xbf9ef468	-1.2418337
35	0xbfc6fc0d	-1.554567
36	0xc002e9db	-2.0455234
37	0xc08aebad	-4.341269
38	0xc00e7bf7	-2.2263162
39	0xc013eb10	-2.311222
40	0xbff1b3ad	-1.8882958
41	0x3dafd6c3	0.085858844
42	0xbf65dedd	-0.8979319
43	0xbf60b4dd	-0.87775975
44	0xbf54b89e	-0.83094203
45	0xbeb271a7	-0.34852335
46	0xc0170987	-2.3599565
47	0xc01d28e4	-2.4556208
48	0xc01bf036	-2.4365363
49	0xc00f9bdc	-2.243888
50	0xbf3b5464	-0.73175645
51	0xbe8f30b1	-0.27966836
52	0xbfcda27b	-1.606521
53	0xc01a9a0f	-2.415653
54	0xbf1f93b0	-0.6233473
55	0xbfaefde9	-1.3671237
56	0xbf666f8d	-0.90013963
57	0xbfbb7d74	-1.464766
58	0x3dad1d08	0.08452803
59	0xc02e4c30	-2.7234
60	0xc0196d6d	-2.3973038
61	0xbfcc8f9c	-1.5981326
62	0xbd6e3827	-0.05815902
63	0xbf94e527	-1.1632432
64	0xc00f397d	-2.2378838
65	0xc00b4c1f	-2.176521
66	0xc0145f99	-2.3183348
67	0xc01bbf82	-2.4335637
68	0xbff523af	-1.9151515
69	0xbface0a1	-1.3506051
70	0xbdd04c7c	-0.10170838
71	0xc01a197f	-2.4078062
72	0xc082da16	-4.089122
73	0xbf9f0254	-1.2422585
74	0xc0237540	-2.5540314
75	0xbf82703f	-1.0190505
76	0xbf91bc6a	-1.1385624
77	0xc021f875	-2.5307896
78	0xc007f110	-2.1240883
79	0xc003571f	-2.0521924
80	0xc0271dfc	-2.611205
81	0xbfe409c6	-1.7815483
82	0x3f1e5b82	0.6185838
83	0xc0098a6f	-2.1490743
84	0xbf87b632	-1.0602477
85	0xbf92d59e	-1.1471441
86	0xc005133c	-2.079299
87	0xbf4a1cb7	-0.78950065
88	0xbfd896ca	-1.6921017
89	0xbfd0c850	-1.631113
90	0xbfa1b346	-1.2632835
91	0xbf956849	-1.167245
92	0xbfeed02a	-1.8657277
93	0xc02a4f9d	-2.6611092
94	0xbffd4af2	-1.9788496
95	0xc005e76b	-2.0922496
96	0xc01584a5	-2.336221
97	0xbfc06184	-1.502976
98	0xc00a932b	-2.1652324
99	0xbf9e164e	-1.2350557
100	0xbfa7f600	-1.3121948
101	0xc0095960	-2.14608
102	0xbf581405	-0.8440555
103	0xc005d691	-2.091221
104	0xbf6c6da9	-0.9235483
105	0xc01f9623	-2.4935386
106	0xbf883793	-1.064196
107	0xbefabf5a	-0.48974115
108	0xbfab2972	-1.3372023
109	0xbfc86c87	-1.565812
110	0xbfb90c18	-1.4456816
111	0xbf3f860b	-0.7481391
112	0xc091be2b	-4.554464
113	0xc07bbbac	-3.9333296
114	0xc04ae68e	-3.170322
115	0xbe8396bc	-0.2570094
116	0xc055a5af	-3.3382375
117	0xbfcbe9c8	-1.5930719
118	0xc04ea16c	-3.2286024
119	0xc0812f97	-4.0370593
120	0xbf57ba9a	-0.84269106
121	0xbfa02ad3	-1.2513069
122	0xbca5fe43	-0.020262843
123	0xc0178a63	-2.3678215
124	0xc0158b60	-2.3366318
125	0xbfd01fc7	-1.6259698
126	0xbffdb7c4	-1.9821706
127	0xbf785197	-0.96999496
